EFN.pt (torch, 66781 bytes, 9 tensors)

weight f4 [60, 2]
00000000: 78d3 c23f ef98 9c3f 90ea d7bf e96e 803e
00000010: c795 61bf bf93 093f 3763 e43f 6f8d 05c0
00000020: 54a8 2e40 4cdd 0a40 d49b 16c0 8b63 08bd
00000030: 7788 87bf 24cd a4bf a49b 0bc0 1ea8 51bf
00000040: 7864 843e 370c 1ec0 12b7 0840 af56 693f
00000050: 17ff 2240 629e 0740 3345 b7bf fb8a 993f
00000060: 8532 12c0 901c 8d3f bb29 c53f 48da 08c0
00000070: e438 0ebf 7101 0340 5def 14c0 507c 9cbf
00000080: ede6 183f 91b1 eb3f c0c5 b7bf db42 3fbf
00000090: 5cde 9abf fc38 0440 5dea fe3f faef 363f
000000a0: 43a8 e6bf 4e32 a8bf b023 f33c 0407 19c0
000000b0: 19dc cebf 0477 ea3f fcc5 2740 5c5a d8bf
000000c0: 9cd1 bd3f 3022 4b3f 902d e9bf ae50 0fc0
000000d0: ecf1 b63f d10a fb3f ec71 d83f 278e e43f
000000e0: 4ce2 883d e0bc f93f ba29 35bf 0679 9cbf
000000f0: 2535 d5bf 142a b43f d680 87bf 2cb0 2abf
00000100: 470c b2bf 0ac9 163e 4244 c73f af34 ecbf
00000110: 4d3d 14c0 22fe f8be e433 213f 532b 0a40
00000120: 5d54 d6bf 80b2 e83f 4156 933f 9916 2e40
00000130: 2c61 403f 285a a8bf b82a 73bf 2253 0dc0
00000140: 814c f4bf c512 0dc0 8bc5 5a3f edd6 3dbe
00000150: 2313 ff3f 94bd 8e3f db2d 06c0 302b 763f
00000160: 5922 17bd cbdc f9bf 709d e3bf 8870 023f
00000170: 039e e6bf 4a13 aa3f c43e 9e3f 1aa7 c13f
00000180: 07ae 403f c8a4 09c0 2b39 ed3f b4a2 6f3f
00000190: fe0f 5bbf 6306 b9bf 4733 f93f 5c09 f4bf
000001a0: 56ce de3f ce06 e33f 03cd 67bf 8946 2dbf
000001b0: 73f4 ed3e c8a2 8c3e 82da e23f 7ed2 a13f
000001c0: 84b1 a4bf 1f88 c63f 0713 aebe 8339 1540
000001d0: 6908 e83e 401b 91bf 770e bbbf f4ae c23f
1.5220785 1.2234172 -1.6868458 0.25084618 -0.8811917 0.5374107 1.7842778 -2.0867574
2.729024 2.169757 -2.353261 -0.033298057 -1.0588521 -1.2875104 -2.1813745 -0.8189715
0.25857902 -2.4694955 2.1361737 0.91147894 2.5468194 2.119042 -1.4317993 1.1995538
-2.2843335 1.1024342 1.540336 -2.1383228 -0.5555556 2.046963 -2.3271096 -1.2225437
0.59727365 1.8413564 -1.4357224 -0.7471139 -1.2099109 2.065978 1.9915272 0.71459925
-1.8020099 -1.3140352 0.029680103 -2.3910532 -1.6160918 1.8317571 2.621459 -1.6902575
1.4829593 0.7934904 -1.821703 -2.2392993 1.4292579 1.9612676 1.6909766 1.7855881
0.06683788 1.9510765 -0.70766795 -1.2224433 -1.6656843 1.4075341 -1.0586193 -0.66675067
-1.3909997 0.14725128 1.5567706 -1.8453578 -2.3162415 -0.48631388 0.62969804 2.1588943
-1.6744496 1.8179474 1.1510698 2.7201293 0.7514827 -1.3152514 -0.9498706 -2.208199
-1.9085847 -2.2042706 0.85457677 -0.18539019 1.9927715 1.1151605 -2.0965488 0.9615965
-0.03689799 -1.9520506 -1.7782421 0.5095296 -1.8016971 1.3287137 1.2362905 1.512912
0.75265545 -2.1506824 1.8533071 0.9360764 -0.8557128 -1.4455074 1.9468774 -1.9065356
1.7406719 1.7736452 -0.905472 -0.67685753 0.46475562 0.27467942 1.7722933 1.2642362
-1.2866673 1.5510291 -0.33998892 2.3316352 0.45318916 -1.1336441 -1.4613789 1.5209641

bias f4 [60]
00000000: 8bf6 31bf 7538 2a3f 6f88 0ebf cd49 233b
00000010: 71c3 853b 2a65 293f 59ab 8d3e 2ac0 5abe
00000020: 1869 c13c 863d 8b3e 0f18 d3bd 0cd6 26bf
00000030: d365 2b3d eb9a ec3e 4f11 133f f0e8 f53e
00000040: 75a2 35be 3d7e 75bf 3069 693e 1495 fd3c
00000050: 38d1 5fbf 0428 be3c 3de9 343d a42e 0b3e
00000060: f6dd c93e 1602 1a3c a861 0f3e 4e4c a33d
00000070: ad06 0c3f 628c 113e 4147 c23e 0601 e03e
00000080: eddc 4bbc e877 81be 5d37 4e3d cdcd ad3e
00000090: 4a2a ce3c 047a 5f3c 3798 123f a5c1 25be
000000a0: c7e0 ac3d 92d4 81bc ebd9 4dbe f0fd ba3c
000000b0: 20fb 643c c0ce aabe 2181 f13c f9ac be3e
000000c0: 13ed 92bd 0449 8d3e d8da 6c3e 9e2b 113f
000000d0: ad0c 1b3f bff1 bf3e e4f1 363f 59a0 403e
000000e0: 9879 95be 8751 91bc 281a 183f 9ccd c2be
-0.6951682 0.66492397 -0.5567693 0.0024915815 0.0040821363 0.6616999 0.2766979 -0.21362367
0.023609683 0.27195376 -0.10307323 -0.6517036 0.041845154 0.46211943 0.57448286 0.4802928
-0.17737754 -0.9589575 0.22794032 0.030954875 -0.8742862 0.02321244 0.044167746 0.1359201
0.39427155 0.009399911 0.14002097 0.07973538 0.54697686 0.14213708 0.37944987 0.4375078
-0.0124428095 -0.25286794 0.050345767 0.33946076 0.02516665 0.013639931 0.5726351 -0.16187151
0.084413104 -0.015848432 -0.2010266 0.022826165 0.0139758885 -0.33360863 0.029480519 0.37241343
-0.071741246 0.2759477 0.23130357 0.5670718 0.60566217 0.37489125 0.71462846 0.18811168
-0.2919433 -0.01773907 0.5941491 -0.38047493

weight f4 [60, 60]
00000000: 7af2 0c3e 6082 403d 6d02 02bf 7ff6 e1be
00000010: 55c5 013e 86c7 3e3d ae43 16be 5bab 78be
00000020: 8c4b f6bc aac9 593e 3773 993d e77f 643e
00000030: 538f 193e 179f 833e ece0 0cbd 2fc7 083e
00000040: 75ab 943e a01f 2bbe bdf5 06be 75b9 d5be
00000050: 5e71 243d 8984 d73d 7a03 04be b043 98bd
00000060: f46a 1ebd b978 96be 764a a9be 0277 2f3e
00000070: 7a27 d43d 9011 23be f7ce 78be b0d1 9d3d
00000080: 9a4d fcbd d8cf 03bf c290 c7bd f62d 873e
00000090: 25fc 603c 83d1 353d 2d81 9b3d 57bf 37bd
000000a0: 77cf 583d e140 ddbe 62ba 983c 1a93 babb
000000b0: f8ad ed3c 75fd 75be d620 10be e715 38be
000000c0: f5de d4bd 0b42 86be 7b1e 9c3e 1822 5a3e
000000d0: 98b2 55be 7f48 34be 8967 f03d 8175 ca3d
000000e0: 9491 1c3f 0f56 72be 49d3 013e 63b6 a43e
000000f0: b5c5 65be 2435 2abe 5684 1a3f b40d e83e
00000100: 23b5 d43d 3aa5 6f3e bb3f dbbc fd0d 66be
00000110: b02e 5bbd d6d9 213e 0c8d 04bf 62b4 4a3e
00000120: 667e 10be c031 133e b439 b0bd 96ee 23be
00000130: 2387 b83d fa15 053f 0f1a 57be 4e61 f8bd
00000140: 6cf8 2ebc c5f7 c3bd 2660 863e d9e2 013d
00000150: 9dc4 9d3e 7b4a a5be 39b6 113e 48ec 1b3e
00000160: 05fb ddbd 412b 4fbd 4ce0 513d 76bf 0e3e
00000170: b853 983e 487f d93e 87b4 e0bd 12af 573d
00000180: 6d82 373e 57e2 17bf fe49 1c3e 9838 00bf
00000190: 8732 98be d2a6 eebe e7a9 33bf 3a52 86bd
000001a0: 15ed af3e 2f07 173e 46d4 983e ab43 95be
000001b0: 22e2 0dbd e7da 933e 3d3c 12be 5737 873d
000001c0: 4733 6fbd 9e17 903e 134a 9c3c d18c 03be
000001d0: 525f a2bd 267d ef3d 8046 6a3d cab3 793e
000001e0: 122c 703f 99e5 083e 6bac 483f 5fdf 24bf
000001f0: b620 f23e 1b81 35be f5d3 1c3e 8e19 bb3d
00000200: 12aa aebe 48c0 703e 34a4 283f 8da9 b3bc
00000210: 1557 babe a028 ccbe 5d1a 3cbe 9361 a3be
00000220: d901 743e 0f9b 263f 3541 7dbe c505 bf3e
00000230: 6815 013f a014 01bf 07e6 28be 90a1 90be
00000240: 0ed5 a43e f332 d93e 1b62 8b3e 531a 2c3d
00000250: 8c8e 87bc 5362 10be 4cf8 debd 42e3 883d
00000260: b2cc 613e c587 583e 48da ea3d 02cb 993d
00000270: b74a b5bc 21e4 ca3e 5072 05bc f829 9a3e
00000280: 2776 c73e d7ab 1cbe 88d8 aa3e beea fe3d
00000290: caba 083d d376 8d3e 43f5 59be 94ba cd3c
000002a0: 25c0 b1be 666a 58bd 6e76 2abe 122c 9cbe
000002b0: 78ac ec3d c979 713e 1fd1 733e c62e 893e
000002c0: 19f1 e9bc 7eca e13e e5d9 99be 8131 90bd
000002d0: 327c 05be 7b09 d53d 8bf4 77be 481d 90be
000002e0: db2f 62be 8b5f 86be 526d 013e 1bc3 19bd
000002f0: 5a21 8f3e a8b8 123e d3dc 903d 232f 8bbc
00000300: 4b98 81be 042a a9be d8f1 6fbe 49f5 563e
00000310: 27dc 223e 074a a5be e4d2 8dbe 4686 04be
00000320: d90d a63d 2847 d7bc cbcb af3d 9a58 1abe
00000330: 73c0 0d3e feae ef3d 6399 96bd 68d4 c1bd
00000340: cb3d 7cbe 1853 90be af94 0e3e be7a 49be
00000350: cba5 2e3e 3d23 913d 87a0 64bc d546 223d
00000360: 94e5 94bd 7a0d fb3d 2905 31be ad77 2dbd
00000370: 9679 903b 47e1 91be 5cc0 4d3e 078d e8ba
00000380: b7d9 1d3e 3d06 8ebe d5c3 183e e817 7d3e
00000390: 732c 5ebe 8483 a5be 5756 193e 7fc2 4f3d
000003a0: 1465 283e 8b4f a33d 29f7 753d 69c4 e33d
000003b0: 3120 f4bd 7714 1b3e 7bad f0bd 96d0 53be
000003c0: 184a c2be bab2 b33e cb12 f03c 0292 b33e
000003d0: a151 c13d a988 14bd 4d4d f73d 4d5b ce3d
000003e0: 1cc8 fd3d 934c 023d 31fd e03e 8d43 44be
000003f0: b693 f13e b5e8 bbbd c546 4a3e a43f 813e
0.13764372 0.046999335 -0.5078495 -0.44133374 0.12672932 0.046577 -0.14674255 -0.24284117
-0.03006532 0.21268335 0.074926786 0.22314416 0.1499608 0.25707313 -0.03439419 0.13357233
0.2903706 -0.16711283 -0.13179679 -0.41743055 0.040147178 0.10523326 -0.12891951 -0.07434785
-0.038676217 -0.2938898 -0.33064622 0.17135242 0.10359092 -0.15924668 -0.24297701 0.0770601
-0.12319489 -0.5148902 -0.09744407 0.26402253 0.013731991 0.04438926 0.07592998 -0.04486021
0.05293223 -0.4321356 0.018643562 -0.0056938054 0.029013619 -0.24022467 -0.14075026 -0.17977105
-0.10394088 -0.26222262 0.30492005 0.21302068 -0.2086891 -0.1760578 0.11738498 0.09885693
0.61159635 -0.23665641 0.12678255 0.321704 -0.224387 -0.16621834 0.6035818 0.45322955
0.103861116 0.23402873 -0.026763787 -0.22466274 -0.05351132 0.15805754 -0.5177772 0.19795373
-0.14110717 0.14374447 -0.08604756 -0.16008982 0.0901015 0.5198666 -0.21006034 -0.121279344
-0.010679346 -0.09568743 0.2624523 0.03171048 0.30814067 -0.32283387 0.14229669 0.15226853
-0.10838894 -0.05057836 0.051239297 0.13940224 0.29751372 0.4247992 -0.10971933 0.052657194
0.17920847 -0.5932974 0.15262601 -0.50086355 -0.2972605 -0.4661165 -0.70181125 -0.06558652
0.34360567 0.14748834 0.29849452 -0.2915319 -0.034639485 0.28877947 -0.14280792 0.06602352
-0.05839851 0.28143018 0.01907829 -0.12846686 -0.07928337 0.11693792 0.05719614 0.2438499
0.93817246 0.13368835 0.7838809 -0.6440334 0.4729058 -0.17725031 0.1531523 0.091357335
-0.34114128 0.2351085 0.65875554 -0.021931434 -0.36394563 -0.39874744 -0.18369432 -0.3191038
0.2382883 0.6508035 -0.24731906 0.3730909 0.5042329 -0.50422096 -0.16493998 -0.28248262
0.32193798 0.42421684 0.27223286 0.042017292 -0.016547464 -0.14100008 -0.108872026 0.06683971
0.22050741 0.21145542 0.11467415 0.07509424 -0.022130353 0.39627174 -0.00814493 0.30110145
0.3895733 -0.15299927 0.33368325 0.12447117 0.03338126 0.27629718 -0.21284966 0.025113381
-0.34716907 -0.052835844 -0.1664674 -0.30502373 0.11556333 0.23581614 0.23810242 0.26793498
-0.028557347 0.44099802 -0.30049053 -0.07040692 -0.13035658 0.10402199 -0.2421438 -0.2814734
-0.22088568 -0.26244769 0.12639359 -0.037539583 0.27955133 0.14328253 0.07073369 -0.01699025
-0.25311503 -0.33039868 -0.234321 0.20992006 0.15904294 -0.3228304 -0.2769996 -0.12941846
0.0810811 -0.026279047 0.08583792 -0.15072861 0.13842945 0.11703299 -0.07353475 -0.094643414
-0.24632947 -0.28188396 0.13923906 -0.19675729 0.17055432 0.07086799 -0.013954288 0.039618332
-0.07270351 0.1225843 -0.17287125 -0.04235046 0.0044090254 -0.28492185 0.2009291 -0.0017742225
0.15415083 -0.27739134 0.14918454 0.24716151 -0.21696644 -0.323269 0.14974342 0.050722595
0.16444808 0.07974156 0.060050163 0.11121447 -0.119202025 0.15144525 -0.11751839 -0.20685038
-0.37947154 0.35097295 0.029305836 0.35072333 0.094393976 -0.03626314 0.12075291 0.10076008
0.123916835 0.031811308 0.4394317 -0.19166394 0.47183007 -0.09175245 0.19753559 0.25243866

bias f4 [60]
00000000: baae f53d 5810 3bbd 2905 173d aaf4 c5bc
00000010: 2538 c03c 7be2 353d 9e4a f2bd 1afe 103e
00000020: 5b46 7abd 4d28 d5bc 373b d63d 3a68 823c
00000030: 27b7 7abc 9578 91ba 233d c33c 75c5 b4bd
00000040: 8b62 1ebd 7ff6 25bc 2ee4 b0bd 01cd aebc
00000050: 5750 433c c04f d8bd 8d52 533d 2fa6 86bd
00000060: c898 ccbd ec0d 4c3d 487c 9a3d ae02 54bd
00000070: dfe8 143e 8f82 1ebd 7a84 a23d 2f11 7bbd
00000080: db1a 22bf 14bf 823d e3d3 3c3d a851 f1bd
00000090: 7360 c3bc 91f7 763d 5d36 abbd f253 ef3c
000000a0: c5fd 69bd 79ff 0abf 2e92 fe3b cbee fb3c
000000b0: 0657 a8bb 17ea 1e3d 02a0 c53d eb92 7dbd
000000c0: 7782 cf3d 7b6c 50bc 1262 993c cc85 ecbd
000000d0: 0518 903d 430d 11bc 56bb 66bd 25fb de3d
000000e0: b3fc cb3d bc9f 8a3c a47f c03d 6144 903b
0.11996217 -0.045669883 0.036870155 -0.024164516 0.023464272 0.04440544 -0.11830638 0.14159432
-0.061102252 -0.026020193 0.10460513 0.01591884 -0.015302456 -0.0011098558 0.023832863 -0.088267244
-0.038668197 -0.01012957 -0.08637272 -0.021337988 0.01192101 -0.10562086 0.0515924 -0.06574666
-0.09990078 0.049817964 0.07543236 -0.051760368 0.14541958 -0.03869873 0.07935424 -0.061295684
-0.6332223 0.063841015 0.04610051 -0.11783153 -0.023849702 0.06029469 -0.08359978 0.029214833
-0.05712678 -0.5429607 0.007768891 0.030753514 -0.005137327 0.038797464 0.0964966 -0.06190769
0.10132306 -0.012721176 0.018723521 -0.11548957 0.07035831 -0.0088532595 -0.056331 0.10887746
0.09960308 0.01692187 0.093993455 0.0044026827

weight f4 [80, 60]
00000000: 86f8 a03d b92f 1bbe facf 9abf ff34 c2bd
00000010: 77f8 4d3e 3394 03bc 7f92 6fbe b1c3 c23e
00000020: eed0 a5bb da37 51be f974 febe 4a7f 2c3e
00000030: 21ef 9b3e 2ad1 1d3e e071 bd3e e759 5dbe
00000040: 108c 2bbf 2618 a0be fcdd f9be d30c 7b3d
00000050: ab3f a73e 0e23 72be 4290 673e b76e 54bd
00000060: 6787 01bd 47bf 033e 2b1d 6c3e 9e38 7f3e
00000070: 7556 003e e48d 853e b9b6 a23e ccea d1bd
00000080: b222 c7bf bc57 bbbd db54 a6be 3ca5 913d
00000090: 13eb 613e 4ec6 dc3b c1e3 0f3e 3269 32be
000000a0: f94e 8f3d d75c a4bf 105f e5bd ffba acbb
000000b0: 9e7e bb3d 6f8b 563e 32ab 783e 68d4 e1bc
000000c0: 8b94 1abd cb15 c0be 6db1 d0be c282 43bc
000000d0: 4463 c63d 26de 87bd cf45 4dbd e909 0b3f
000000e0: 01fe 28be cd59 04bd e80a b2be 59af 643c
000000f0: 1f36 c23d c874 363e a2d7 013d 34d6 6d3c
00000100: 9f5d 353e d0e7 1a3e 9bc4 9dbe 85fa bd3c
00000110: 256c 08bc 01e2 753e fafa 47be 68f1 b73e
00000120: 9cb0 133d d350 e63e d3c9 733e 6ab4 933e
00000130: e60d e13d 8b4f 08be 2b55 ea3d 7ca3 0c3e
00000140: b93c 003e aead 51bd 96d0 993e a791 2dbe
00000150: c74e ae3e a03d 733e f421 44bd e2a6 d0bd
00000160: 29b0 d83e 2f7e f13d abc3 1f3d 844d 50be
00000170: 8760 3240 9de8 bb3d d9c4 a1bc 5c26 39be
00000180: d7b1 a3bd 9913 723e 63fb a43e 7cd8 6fbe
00000190: 649c 2cbe 85f2 cf3f 5995 86bd 5aab 733e
000001a0: 15db 5e3e f94a a1be 041e fe3d ab18 963e
000001b0: 2c63 8ebe c805 463d a41b 123d 12cc 72be
000001c0: 57d4 ad3d 9edf 26be e026 01bc 5570 32be
000001d0: b6f9 a9bd c7fa 833e 5795 6b3d 1ae9 fe3c
000001e0: 331c 04be 5238 f2bd 1ae5 b0bd d558 663e
000001f0: baaf 34be d1ea e7bd 0cc0 49be e2a5 84bc
00000200: cbef 91be f606 223e 9020 50bd 3ab0 ba3e
00000210: 68fa 16be 17b2 b23d 3f7b 95be 65e3 b63c
00000220: 5117 efbd 9fe4 59be e296 843d 9393 a33e
00000230: f6f8 cf3e 1446 f33d b2e7 58be 6b8f cebe
00000240: 0fa4 f83d 2c7b 66be 1ec5 8f3c a7f7 fc3d
00000250: 1b6b 143e 0bb1 73bd ddff d23c 0b7d 803e
00000260: b574 c23f a566 a8be e43d acbd a23c 073e
00000270: b501 1f3e 4562 4c3e cc3b 51bb f8cb 643e
00000280: 73aa 24be 2996 643f a19d acbd a95e debd
00000290: 08ff 943e e60d 3fbe 754e 903e 1de2 013e
000002a0: 4786 04bc b122 843e 8ca5 153d 616f 88bd
000002b0: 6c8e 4cbd 7d7f 213e ed99 993e a5bf 98be
000002c0: d70f 833e b758 c4bd 229d 823e b13c 39be
000002d0: 1b2a dd3d 1da1 963e 3461 02bc cb74 68be
000002e0: acf7 11be 71c2 c6bd 0ebd a4be f4b1 3dbe
000002f0: bcae f8bc cedc 6b3e e454 903e d98c 9c3e
00000300: 3fde 94bd 0601 ecbc 2835 9fbc 9985 303e
00000310: 24c7 443e 42fd 38be e278 72be 1865 07be
00000320: 31ab ddbd f145 333e de0b 4b3e 286e 4cbe
00000330: bef2 543d e45b eebd 7c80 66be e237 36bd
00000340: e718 a63e 08a5 5cbe 063c 7b3e c4e6 fabd
00000350: bd5f 4b40 11e9 a5bd 9240 4cbd 240b 8abd
00000360: b378 93be 6fdf 123d 92a5 733c a576 543e
00000370: 2f63 363e ee5b 3940 9847 19bd f2ec 23be
00000380: 917f cfbd 477a 743d ea74 2fbe 7346 8d3e
00000390: 7e1e 9d3e 9cdf 903e e1eb 3d3e 1fa8 9d3e
000003a0: ca7f 01be c5e0 3c3c 66b6 253e 6c65 843e
000003b0: 7d36 25be 6acd 9abd c4be 2d3d b918 1cbe
000003c0: 615d d7bd 63cc 413e f0f9 1b3e a3cc 90bc
000003d0: c904 93bd 6c8a b53e e6c4 cfbd 9718 c63e
000003e0: b616 7b3d d77f 703e 513f 92bd de1d cbbe
000003f0: d288 c93d adc7 0bbf e7f7 b43e 90fa dcbd
0.07859902 -0.15154923 -1.209472 -0.094827645 0.20114313 -0.008030939 -0.23395728 0.38039926
-0.0050603068 -0.20431462 -0.49698618 0.16845432 0.30455878 0.15411821 0.37000942 -0.21616326
-0.67010593 -0.31268424 -0.48802173 0.061291527 0.32665762 -0.23646185 0.22613624 -0.0518634
-0.03162327 0.12865935 0.23058002 0.24923941 0.1253298 0.26084816 0.3178003 -0.10249862
-1.5557463 -0.091475934 -0.32486615 0.07111594 0.2206233 0.006737507 0.14051725 -0.17422941
0.06997485 -1.2840832 -0.11199772 -0.005271315 0.0915501 0.20951627 0.24284056 -0.027567104
-0.037739318 -0.37516627 -0.40760365 -0.011933031 0.09686902 -0.06634168 -0.050115403 0.54311997
-0.16503145 -0.032312203 -0.34773946 0.013957822 0.09482979 0.17817986 0.031699784 0.014516402
0.17711495 0.15127492 -0.3081406 0.023190746 -0.008326565 0.24011995 -0.19529334 0.35926366
0.0360571 0.4498354 0.23807459 0.28848583 0.10988979 -0.13311593 0.11442026 0.1373424
0.12523164 -0.051191024 0.3004195 -0.16950093 0.34044477 0.23753977 -0.047883943 -0.1018808
0.423219 0.11791646 0.039004963 -0.2034207 2.7871416 0.09175227 -0.019747185 -0.18081039
-0.07992905 0.23640288 0.32223043 -0.23422426 -0.16856533 1.6245886 -0.065714546 0.23795834
0.2176326 -0.31502512 0.12408069 0.29315695 -0.27810037 0.048345357 0.03567089 -0.23710659
0.08487766 -0.1629624 -0.007882804 -0.17425664 -0.08299582 0.25777265 0.05751547 0.03111701
-0.12901382 -0.118271485 -0.08637448 0.22494824 -0.1764516 -0.113240846 -0.19702166 -0.01619238
-0.2850326 0.15822968 -0.050812304 0.36462575 -0.1474396 0.08725374 -0.29195592 0.022325227
-0.11674369 -0.21278618 0.06474091 0.31948528 0.4061963 0.11878601 -0.21182135 -0.40343794
0.12140667 -0.22507924 0.017550047 0.123519234 0.14493982 -0.059495013 0.02575677 0.250954
1.5191866 -0.32890812 -0.08410242 0.13206723 0.15527995 0.19959362 -0.003192651 0.22343433
-0.16080646 0.89291626 -0.08428503 -0.10857899 0.29100823 -0.18657646 0.28184858 0.12683912
-0.008088655 0.25807717 0.03653483 -0.06661869 -0.04994051 0.15771289 0.3000025 -0.29833713
0.25598022 -0.095872335 0.25510508 -0.18089558 0.107990466 0.29419795 -0.007957745 -0.22700803
-0.14254636 -0.097050555 -0.32175487 -0.18524915 -0.030356757 0.23033449 0.28189766 0.30576208
-0.072689526 -0.028809082 -0.019434527 0.17238463 0.19216591 -0.1806536 -0.23678926 -0.13222158
-0.10823668 0.1750715 0.19828746 -0.19963896 0.05198931 -0.116386205 -0.2250995 -0.044486888
0.32440874 -0.2154733 0.24534616 -0.12251046 3.1777184 -0.081010945 -0.049866267 -0.06740406
-0.28803024 0.035857614 0.014871018 0.20748384 0.17811273 2.896236 -0.037421793 -0.16008356
-0.10131753 0.059686925 -0.17134443 0.2759281 0.30687326 0.282956 0.18547012 0.3079233
-0.12646404 0.011528199 0.1618286 0.2585863 -0.16134067 -0.07558711 0.042418256 -0.15243806
-0.105158575 0.18925624 0.15232062 -0.017675703 -0.07178647 0.3545717 -0.10144977 0.38690636
0.061300956 0.23486267 -0.07140983 -0.39671224 0.098405495 -0.54601556 0.35345384 -0.107899785

bias f4 [80]
00000000: a2e2 073e a0c1 85bd 8799 8a3c f345 6ebd
00000010: b956 363c e8da 0b3d ce53 733c 189f 1abe
00000020: 9324 9a3d 9368 86bc f57a 013e b74d 963c
00000030: 4152 a23d 411b 80be d86f 2f3e 369a bcbd
00000040: 9d1b eebd 650c c2bd b52a cd3d 2214 80bc
00000050: 7a8a 7b3d f053 3c3d dbb0 aabb ca17 8fbd
00000060: a79e 0b3e cd05 e1bd aff3 173e 072a 81bd
00000070: cc91 ce3d 0c73 bebc dd62 c33d 505e b0bd
00000080: dd83 b8bd 239c 083e 3d7b d2bd 472c e4bd
00000090: f01a 28bd 9820 a7bc 3ef7 e3bd 9be8 0abe
000000a0: 10c0 973d 10c0 b43c ecd7 3dbd 88ef 103b
000000b0: fdd5 13be 7122 73bd aab3 bc3d 17f2 3dbe
000000c0: cbba 99bd c775 933c d70c f8bc b98c ebbd
000000d0: 8130 4bbd 24b9 49bd c639 59be 4817 cebd
000000e0: ff0f a23d 3709 e3bd d25f 963d c7fe 10bd
000000f0: 73b5 903d eee3 703d dbf0 b3bd b868 a6bc
00000100: 952a 7fbd f261 f1bd 431b bc3d a7f3 7cba
00000110: c9cf 1fbb a5df eebd a9a4 00bd 0489 283d
00000120: c460 8c3d 5864 9ebd 20e8 49bd 50ff e33d
00000130: f123 dd3d b9d5 0a3c 9a25 523c b8a2 96bb
0.13270047 -0.06531072 0.01691891 -0.058172178 0.011129075 0.034144312 0.014851524 -0.15099752
0.07526507 -0.016407287 0.1264456 0.018347604 0.07925845 -0.25020793 0.17132509 -0.09209101
-0.116263606 -0.0947502 0.10017911 -0.0156346 0.06141136 0.045978487 -0.005209071 -0.06986959
0.1363474 -0.109874345 0.14839052 -0.06306844 0.10086402 -0.023248218 0.09540341 -0.08611739
-0.09009526 0.13340811 -0.10277412 -0.11141258 -0.041041315 -0.020401284 -0.11131142 -0.13565294
0.0740968 0.022064239 -0.046348497 0.0022115428 -0.14437099 -0.059359018 0.09213956 -0.18549381
-0.07506331 0.018000497 -0.03027956 -0.1150145 -0.049606804 -0.04924883 -0.21213445 -0.10063034
0.07913207 -0.11085742 0.07342495 -0.035399225 0.07065859 0.05881112 -0.08786174 -0.020313606
-0.06229647 -0.1178626 0.09184887 -0.0009649344 -0.0024385324 -0.116637506 -0.031407032 0.041146293
0.06854394 -0.07733983 -0.049293637 0.11132681 0.10797871 0.008473807 0.012826348 -0.0045970343

weight f4 [80, 80]
00000000: 0971 58bf 32d8 cdbc 0165 1dbd 352f 3c3e
00000010: 3c94 29bf f203 163e ca82 843e f9d6 dfbd
00000020: 81ba 0d3e cdbf 443d 66d9 49bd 58dd 4abf
00000030: 2e44 443e 319d 6f3d 1cd3 b2be 8429 5b3e
00000040: bb43 8ebe f2cb d8be 2b30 083e 9d2f 673e
00000050: 6888 e7be f72f d73d 0de7 0fbe 5142 ec3d
00000060: e4fd c5be 567c 44bf 87e9 b8bd c32a 28bf
00000070: 29a1 a239 13b9 1fbe 5948 c8be b7cc 1d3e
00000080: 809c d13d ab48 89be 74cf bb3e a29d 013e
00000090: c55a 5e3e 6b2c 10bf 3438 793e 2c9c a83c
000000a0: 6ffc 4cbf 5325 4e3e f5d7 d4be 487f 2c3e
000000b0: 7471 d4bd 3f68 85be bbf0 7cbe aecf 163e
000000c0: ae43 81bd 9a5d 6c3d 78ca 64bf bc20 62be
000000d0: 8889 b33c c081 ffbe c5a9 af3e 450b ff3c
000000e0: 0ea0 453d 1c39 543e 4dca 813e 168a 18be
000000f0: 1973 173e 460f 50be 932e de3d ec8b 0c3e
00000100: 9b47 0fbf d04e 5f3c 86ff 7dbe b760 13bf
00000110: 321e df3d 4eaa 2c3d 0094 9b3d a123 223e
00000120: c5f2 6c3c cb94 263e 5d95 f1be 9788 30be
00000130: c606 233d 24b1 71be 67d9 39be 82d2 08bd
00000140: fe02 39bf 51b5 083e e93f c93d c3b1 783e
00000150: c9a8 3bbf 36f2 28bd 3023 77be 0c8c 0c3d
00000160: 53c2 a03d 9b9c 903d f195 46be 1f0f 0bbf
00000170: 9c19 7e3d 0919 243e 2fc9 95be e6cd b73d
00000180: c4e8 69be 6e07 b7bd 7f7a 26bd 7347 29be
00000190: b16f 0ebf 36ae 68bd 45c5 e1be 7c87 2d3d
000001a0: 7cd4 eabe a084 0dbf 5485 cabd 4bc2 0bbf
000001b0: 91ed 3c3e 3171 babd f7c6 1dbd a0de 72be
000001c0: e9c7 a9be 4bf0 eabd 55f5 6e3e 0e87 2439
000001d0: 92d8 50bd fb95 f1be a310 293e 867a 87bc
000001e0: a5be 09bf fe20 543e 1a44 f2be c46e 983e
000001f0: 39a1 61bd eac2 3abe 4465 29be cc52 973d
00000200: 453e 5a3e a191 c53d 17c5 51bf af04 fdbc
00000210: c80b b23d 048c 43be 18c1 bb3e d8ec 57be
00000220: 9f3d 053d 87f0 13be f1dd 6c3e 0c9b d0be
00000230: b472 6d3d cb52 9b3e cf8d 063d f968 7ebe
00000240: 46b7 2fbf dfaa c0bd 99e4 2c3e 8838 68bf
00000250: f9b7 6c3e 7ba0 843e 242d f43d c820 f43d
00000260: f708 b9bd b153 643e 2b07 97be b7e6 fb3d
00000270: 89e6 eebd cd9b d5bd 2923 bcbb 2c99 b93d
00000280: 81ce 1bbf 0747 5d3e ffdc 96bb ebeb 5c3e
00000290: e1d8 b6be 00bd 813e 5006 493e 2603 40be
000002a0: 7d9e 053e e5f6 18be 0ee9 4b3e b184 14bf
000002b0: 7a50 983e 4689 213e 9233 d6be 017d 393e
000002c0: c594 f1be eefb 93be e6de 01bd c88c 753e
000002d0: 86e9 d4be 0807 0b3e 1057 adbe ebba 12bd
000002e0: bcda 04be 32a7 22bf 4f51 27be c1f0 c8be
000002f0: 87db 0ebe 515e 1abe 0444 c6be 9e70 7c3e
00000300: 8547 d4be 6a0e 68be 5836 5b3e cc07 813e
00000310: c8d3 003e 0853 13bf 7894 033e 1b57 d73d
00000320: a90b 36bf 0775 f1bd 8a41 25be b84d cd3d
00000330: 4c93 a6be 2e3a 9cbe c637 d4be e568 893e
00000340: 4062 513d fe20 863c 140e 0abf 8558 25be
00000350: b459 143d 4298 1fbf 6a42 8e3d 8013 8bbd
00000360: 58ef 93be 9f77 1ebc 5b64 083e d8eb 3bbe
00000370: 0f2a 283e 4c70 b2bc 38c8 aaba b5f2 d33a
00000380: 087f ffbe c122 08be 7316 483e ea80 6dbf
00000390: 481f 58bd 2488 4e3e a1c4 b63b e798 41bb
000003a0: 68b1 ce3d a94d 543c 95c8 9fbe 9611 073e
000003b0: 488a 343c 4a58 de3c 7993 50be b7b0 833d
000003c0: 5594 eabe f04f bcbd 56a0 593e 3593 4dbe
000003d0: 5cb2 1fbf ec5d 3a3c 7e7d 813e ef2c 7e3e
000003e0: d397 853e 10b8 2bbe 7d6c 573e 604a cbbe
000003f0: 93bb 613e cf65 e1bd deb6 7bbd 9af3 8d3e
-0.8454748 -0.025127504 -0.038426403 0.18377383 -0.6624181 0.14649943 0.25881034 -0.10929675
0.13840677 0.048034478 -0.049279593 -0.79243994 0.19166633 0.05849952 -0.3492669 0.21402556
-0.2778605 -0.42343098 0.13299625 0.22576757 -0.45221257 0.105071954 -0.14052983 0.11536086
-0.38670266 -0.7675222 -0.09028917 -0.6569025 0.00031019122 -0.15597944 -0.39117697 0.15410124
0.10234928 -0.26813254 0.36681712 0.12657788 0.21714313 -0.56317776 0.24337846 0.020582281
-0.80072683 0.20131426 -0.41571012 0.16845429 -0.10373202 -0.26056096 -0.24701206 0.14727661
-0.06311737 0.057706453 -0.8937144 -0.220828 0.021916166 -0.4990368 0.3430921 0.031133303
0.048248343 0.2072491 0.25349656 -0.14896426 0.1479 -0.20318326 0.10848727 0.13725251
-0.55968636 0.01362963 -0.24804506 -0.5756945 0.10894431 0.042154603 0.07596588 0.15833904
0.014462178 0.16267698 -0.47184268 -0.17239605 0.03980138 -0.2360273 -0.18149339 -0.03340388
-0.7227019 0.13350417 0.09826643 0.2428656 -0.7330442 -0.041246615 -0.24134517 0.034313247
0.078495644 0.0706112 -0.19393136 -0.5431995 0.06203614 0.16025175 -0.29255053 0.08974819
-0.228427 -0.08936964 -0.040644165 -0.16531162 -0.5563918 -0.056806765 -0.44095817 0.042365536
-0.45865238 -0.55280495 -0.098887116 -0.5459334 0.1845 -0.09103621 -0.038519826 -0.23717737
-0.33160332 -0.114716135 0.23335774 0.0001569057 -0.050987788 -0.4718474 0.16510253 -0.016537916
-0.53806525 0.2071571 -0.47317582 0.29772007 -0.055085395 -0.18238416 -0.16542536 0.07388839
0.21312816 0.09646917 -0.8194136 -0.030886022 0.08693653 -0.1909638 0.36670756 -0.21086442
0.03252947 -0.14447223 0.23131539 -0.4074329 0.057970718 0.30336604 0.032850083 -0.24844731
-0.6863903 -0.09407591 0.16884078 -0.9071126 0.23117055 0.25903687 0.119226724 0.11920315
-0.09034913 0.2229755 -0.29497656 0.12299865 -0.11665065 -0.10430107 -0.005741496 0.09062418
-0.60861975 0.21609126 -0.0046039815 0.2157437 -0.3571234 0.25339508 0.19631314 -0.18751201
0.1304874 -0.14937933 0.19913122 -0.5801497 0.297489 0.15775022 -0.4183622 0.18114091
-0.47183815 -0.28903145 -0.031706713 0.23979485 -0.41584414 0.13576901 -0.33855486 -0.03582279
-0.12974066 -0.6353637 -0.1633961 -0.3924618 -0.1395093 -0.15075041 -0.38723767 0.24652335
-0.41460815 -0.22661749 0.21407449 0.2520126 0.12580788 -0.5754857 0.12849605 0.10514661
-0.7111154 -0.11789899 -0.16138282 0.10024589 -0.32534254 -0.30513138 -0.41448802 0.2683784
0.05111909 0.016373154 -0.5392773 -0.16147049 0.03621836 -0.623417 0.06946261 -0.06790829
-0.28893542 -0.009672075 0.13319533 -0.18351686 0.16422294 -0.021782063 -0.001302964 0.0016170355
-0.49901605 -0.13294508 0.19539814 -0.9277483 -0.052764207 0.20169121 0.005577639 -0.00295406
0.10092431 0.012957969 -0.3120772 0.13190302 0.011019297 0.027141709 -0.20368756 0.0643019
-0.45816293 -0.09194934 0.2125257 -0.20075686 -0.6238153 0.011374932 0.25291055 0.24821828
0.26092395 -0.16769433 0.21037479 -0.3970518 0.2204421 -0.110057466 -0.061453693 0.27724916

bias f4 [80]
00000000: 178e f5bd dd75 463d 1b1a ac3d c48a ed3c
00000010: 846c 073d 18e4 003e 6eca 09bd cf45 99bd
00000020: c602 92bd 8488 b63d d6f2 d43c 9007 c43d
00000030: 6671 fdbc ed98 d33d 8a3e 65bd 2a64 e4bd
00000040: 3536 e0bd ca55 0bbd b133 9d3c d4b6 33bd
00000050: 1193 99bc 60da 1ebd d492 cebd eb1a 793b
00000060: ce0a 4abb 92c2 e9bc 87a4 d73c d957 4d3d
00000070: bf3a a0bd b572 d4bc ac66 ccbd b0c7 78bd
00000080: a82a cabd 92f7 6bbc d5d8 153d 2f10 033e
00000090: 2502 eabb 334d 18bd 5d1c 77bc c36e 1c3d
000000a0: bd1e 4abd 7ea1 3f3d a3ee a6b7 a789 5a3c
000000b0: 7a6b 4b3c b849 073c 60f5 443d 81c9 9c3c
000000c0: 3ef9 d63d 682b 413d dc79 47bc 0433 08bd
000000d0: f774 49bd 356f 70bd d488 183e 8636 83bd
000000e0: 3ecb 9a3d b2e5 90bd 5570 403d 29ce f5bd
000000f0: 2324 8abd 5007 a2bc 65af 023d 47be 213c
00000100: b6ce 9abd 25da aabd 489f d03b 59b8 093d
00000110: 58df b73b 6da4 bc3d c683 c53d c94e 493c
00000120: 4054 a83d 2dd2 95bd 206b 833d 4dc6 593d
00000130: 8610 59bb 3a95 f23c 3912 99bd a13f a63c
-0.11989992 0.048452247 0.08403417 0.028996833 0.033062473 0.12587011 -0.033640318 -0.07484018
-0.07129435 0.08912757 0.0259947 0.09571755 -0.030937862 0.10331903 -0.055967845 -0.11151917
-0.10947839 -0.03401736 0.019189687 -0.04387553 -0.018746885 -0.038782477 -0.10086599 0.003801043
-0.0030829194 -0.028535161 0.02632357 0.050132606 -0.07823705 -0.025933603 -0.099805206 -0.06073731
-0.09871417 -0.014402287 0.03658374 0.12799142 -0.007141369 -0.037182998 -0.015082446 0.038191568
-0.04934572 0.04678487 -1.9899866e-05 0.013338483 0.012415761 0.008257322 0.04808557 0.019139053
0.10496758 0.047160536 -0.01217505 -0.033251777 -0.049183812 -0.058699805 0.14895946 -0.06406884
0.075582966 -0.07075061 0.04698213 -0.120022126 -0.06745174 -0.019778877 0.03190555 0.009872026
-0.07558958 -0.08342389 0.006366644 0.033623073 0.0056113414 0.09211049 0.096442744 0.01228685
0.082191944 -0.073154785 0.06416917 0.05316763 -0.003312142 0.029612172 -0.07474179 0.020294013

weight f4 [1, 80]
00000000: c714 773e 20e5 653e 28dc 9f3e 8609 df3e
00000010: 5fce 39be 6a94 b6bf 0cfe b5bf 5091 823e
00000020: 8c2c 7c3e df92 873e fd84 0dbf 3fcb 25bf
00000030: 6676 893e e069 82be e3b7 32be c003 3bbf
00000040: aa7a 98bd e5b1 f63e bb04 e3bf 21e8 aabe
00000050: 6387 16be 773f 29bf 307a 92be 5efd 2e3e
00000060: 4a4b a9be 1c30 3f3e 588e d23d 8e88 11be
00000070: b305 593e bb03 a4bf a325 65bc 5cfa 2a3e
00000080: bfb9 debe ebdd 613e dc9a c43d c5f7 43bf
00000090: 9e71 ae3d 45e4 34be 4395 ea3e 6506 2e3f
000000a0: cd76 bdbd 5f76 e3be 2d40 acbe 7464 fc3e
000000b0: d5b8 99be 7873 413f 06a2 f23d bf0c 613e
000000c0: 3d67 13bf e0be b0bf d69c 153e bd5f ab3c
000000d0: 4778 71bf 033f 233e 8c1d 6d3f 3df9 b13e
000000e0: b4de 14be 777e b43e 2675 863c 7b77 823e
000000f0: b648 bc3b 39a3 09be 5bfa 49bf b963 2e3e
00000100: ff51 99bf 4e65 013e d50b aa3e 136b 79bf
00000110: baa1 82bf 7808 7fbf 8114 603e eec4 8cbf
00000120: 68b7 0cbf 3d53 b0bf 34a8 b2be 2bb1 733f
00000130: 4269 f0bd 3af5 71bd d82a d83d 2eac 94bf
0.2412902 0.22450686 0.31222653 0.43561953 -0.1814513 -1.4264042 -1.4218154 0.2550149
0.24626368 0.2647924 -0.5528105 -0.64763254 0.26848143 -0.254714 -0.1745296 -0.730526
-0.07445271 0.48182598 -1.7735819 -0.33380225 -0.14700083 -0.66112465 -0.28608847 0.1708884
-0.33065253 0.18670696 0.10281056 -0.14212248 0.2119358 -1.2813638 -0.013986024 0.16697067
-0.43501088 0.22057311 0.095998496 -0.7654994 0.085177645 -0.17665203 0.45817003 0.6797851
-0.09251175 -0.44426247 -0.33642712 0.4929539 -0.30023828 0.75566816 0.1184731 0.21977518
-0.57579404 -1.380825 0.1461061 0.020919675 -0.94324154 0.15942006 0.9262321 0.34760466
-0.1453808 0.35252735 0.016413283 0.2548178 0.0057459725 -0.13441171 -0.7889764 0.17030229
-1.1978148 0.12636301 0.33212152 -0.9742901 -1.0205605 -0.996223 0.21882822 -1.0997598
-0.54967356 -1.3775402 -0.34893954 0.9519221 -0.11738826 -0.059071757 0.10555047 -1.1615045
