SpectralEFN.pt (torch, 116814 bytes, 17 tensors)

weight f4 [60, 2]
000000 a8 9f 25 c1 c9 cd 0a c1 19 20 0d 41 0a 2c ef 40
       -10.351479 -8.6752405 8.820336 7.474126
000010 31 52 a2 c0 ab c0 9c 40 e9 91 c4 40 d0 96 c6 c0
       -5.072533 4.898519 6.1428113 -6.2059097
000020 df eb 24 41 63 21 21 c1 e3 59 07 c1 31 ef 19 41
       10.307586 -10.070651 -8.459445 9.620896
000030 b6 2e de 40 66 cd 35 41 c1 e9 1e 41 5a 45 f0 c0
       6.943202 11.362646 9.932069 -7.508466
000040 4f ac 33 41 54 00 28 c1 0f 98 04 41 ac 08 33 41
       11.229568 -10.50008 8.287124 11.189617
000050 e2 5e b2 40 7b bc 88 40 d3 80 36 41 f6 fd 2a 41
       5.5740824 4.273008 11.406451 10.687002
000060 35 bb 17 41 6d 92 0e c1 64 ad 2c 41 7c 93 24 c1
       9.483205 -8.9107485 10.792332 -10.286007
000070 ff 39 81 40 99 5b 2b 41 60 e7 de 40 2c 2b 37 41
       4.0383296 10.709863 6.965744 11.44804
000080 42 f0 d8 40 88 9a c8 c0 50 12 ea 40 2b f2 b4 40
       6.7793283 -6.2688637 7.3147354 5.6545615
000090 d1 f2 da c0 f6 31 c6 c0 77 7d 0f c1 3f 07 f9 c0
       -6.8421407 -6.1935987 -8.968131 -7.7821345
0000a0 a0 9e 31 c1 ce 79 fa c0 65 27 0e c1 04 1d ab bf
       -11.101227 -7.8273687 -8.884618 -1.336823
0000b0 87 ac e5 c0 ea 80 14 41 d3 fd ba 40 7a 2b c3 40
       -7.1773105 9.281473 5.8434844 6.099057
0000c0 40 9e a8 c0 26 e3 15 40 05 29 ff c0 67 68 94 c0
       -5.2693176 2.341989 -7.9737573 -4.6377444
0000d0 05 10 33 41 b4 c8 34 41 c5 46 06 c1 3a fd 50 40
       11.191411 11.299 -8.392278 3.2654557
0000e0 0a b1 38 41 a9 92 2d c1 d0 b3 0c c1 3a ed 1f 41
       11.543222 -10.848306 -8.7939 9.995417
0000f0 89 3a d9 c0 cf 63 2a 40 0f 8a ed c0 fa 53 97 c0
       -6.7883954 2.6623418 -7.423103 -4.729001
000100 a2 21 24 c1 ed 02 02 c1 68 ac 0b c1 d9 6a 13 41
       -10.258211 -8.125714 -8.729591 9.213586
000110 58 30 2b 41 83 cd e7 c0 1b b2 2f 41 32 e5 26 c1
       10.699303 -7.243837 10.980983 -10.430956
000120 1d 0f a4 40 fd 1a 33 41 01 71 1f c1 ec 4a e4 bf
       5.126845 11.194089 -9.965089 -1.7835364
000130 5a 50 81 40 f3 37 13 40 fc 74 0f c1 54 a6 25 41
       4.0410585 2.3002899 -8.966061 10.353107
000140 86 40 1e c1 f8 d8 10 41 13 3f aa 40 7f bb c8 be
       -9.890753 9.052971 5.3201995 -0.39205548
000150 66 15 bc 40 ae a5 a1 c0 9b 36 04 41 3b cf 31 41
       5.877612 -5.0514746 8.263331 11.113093
000160 5b 89 26 c1 25 66 0c c1 ff aa 12 c1 68 a3 15 41
       -10.408534 -8.774938 -9.166747 9.352394
000170 35 fe a6 40 c5 5d af c0 bf 27 99 40 62 b0 7e 40
       5.218531 -5.4801965 4.786102 3.9795156
000180 21 ce 25 41 d7 b3 13 c1 82 80 18 c1 98 39 0d 41
       10.362824 -9.231406 -9.531374 8.826561
000190 f5 e7 6e 40 94 df 61 c0 c9 11 18 41 7f e3 21 41
       3.7329075 -3.5292711 9.504342 10.118041
0001a0 0a ef bb c0 bc 89 ca c0 9f 86 1f 41 e1 34 29 41
       -5.8729296 -6.3293133 9.9703665 10.57541
0001b0 ae a3 28 41 65 79 08 41 e1 33 86 c0 60 10 4e 40
       10.539961 8.529637 -4.193833 3.2197495
0001c0 18 e2 99 40 6c 18 2e 41 91 a3 21 41 db 76 21 c1
       4.8088493 10.880962 10.102433 -10.091517
0001d0 ed cd 25 c1 3e d6 0c c1 9f 87 d6 40 08 51 90 40
       -10.362775 -8.802305 6.7040553 4.5098915

bias f4 [60]
000000 ca 20 cf 3c 03 a4 66 3f 0f d9 91 3f 92 00 3b 3f
       0.02528419 0.9009401 1.1394366 0.73047745
000010 74 3d 55 3d c2 3e a3 3c ca 4a 7a 3d 9e 65 9e 3d
       0.05206056 0.019927386 0.06110648 0.07734226
000020 cc f8 6f 3d 39 56 05 3e 2f f7 ef 3f b3 8d 2a 3e
       0.05858688 0.13021173 1.874731 0.16655616
000030 d2 1a 3f 3d 2f eb 69 3d 18 f0 58 3d 7f ab 70 3d
       0.046656437 0.057109054 0.052963346 0.0587573
000040 dd 4b 54 3e 99 e1 5e 3f d1 e2 8d 3f 30 6b 3c 3f
       0.20732065 0.87062985 1.1084844 0.73601055
000050 d2 9b d3 3d e9 71 d3 3f 7e 78 92 3c a9 25 cb 3f
       0.10332455 1.6519138 0.01787972 1.5870868
000060 ce ef cd 3f 8f 9d e8 3f 3d a5 35 3e 7b e7 37 3f
       1.6088808 1.8173083 0.17738815 0.71837586
000070 63 19 8a 3d 92 01 d1 3c 77 72 d0 3f 26 6b 14 40
       0.067431234 0.025513444 1.6284932 2.3190398
000080 7f 68 04 3d c6 f1 d4 3c 22 a7 b3 3d 43 a7 66 3d
       0.032326218 0.025994193 0.087721124 0.056311857
000090 a7 cd e2 3d bd 18 90 3d aa 29 2e bf d7 dd 9f 3c
       0.11074381 0.070359685 -0.68032324 0.019514961
0000a0 01 e8 0d 3d c3 06 08 40 af 45 99 3f ff 8f b1 3d
       0.034645084 2.1254127 1.1974391 0.08670043
0000b0 60 f1 04 3d 53 c9 da 3c 66 57 54 3f 0f b8 c0 3f
       0.032456756 0.026707327 0.8294586 1.505617
0000c0 3f 25 5a 3d 4b 91 07 3d a9 c3 ab 3f b9 09 e6 3d
       0.053258177 0.033097547 1.3419086 0.11232323
0000d0 4f 5a b6 3f a3 e9 e7 3d 21 64 1b 3e ed fd 06 40
       1.424631 0.113238595 0.15174915 2.1092484
0000e0 93 3e 62 3d 92 a7 3a 3d 54 66 a3 3c d6 d9 30 40
       0.055235457 0.045569964 0.019946255 2.7632957

weight f4 [60, 60]
000000 5b 48 53 c0 f9 a8 96 3e 85 88 fe 3e 34 43 da 3e
       -3.3012912 0.2942579 0.4971353 0.42629397
000010 87 55 8b c0 8e 2e 76 c0 7b 97 99 c0 f8 72 64 c0
       -4.3541903 -3.8465915 -4.7997413 -3.5695171
000020 77 25 72 c0 8e 7f 74 c0 fb 15 09 3f d2 52 60 c0
       -3.7835367 -3.8202853 0.53549165 -3.505055
000030 62 f3 5e c0 3c a2 71 c0 40 fc 9c c0 bc 5e 97 c0
       -3.483605 -3.775527 -4.905792 -4.7303143
000040 75 eb 9f bc 2b 52 71 3e 6e 9f 89 3d c8 e5 9c bc
       -0.019521454 0.23566501 0.06719862 -0.019152537
000050 68 46 79 be de 99 cb 3e af 61 99 c0 0a aa b1 3e
       -0.24343264 0.3976583 -4.7931743 0.34700042
000060 25 1b f9 3e 1c 07 f5 3d f7 bb 6c c0 95 7c 23 bc
       0.48653522 0.11964247 -3.6989725 -0.009978433
000070 d3 f6 21 c0 20 b6 7b c0 d2 71 c5 3e a1 ae 72 3e
       -2.53069 -3.932991 0.385634 0.23699428
000080 09 98 44 c0 52 ee 87 c0 81 f4 3e c0 87 06 84 c0
       -3.0717795 -4.247842 -2.9836733 -4.125797
000090 33 0a 9b c0 70 cd 52 c0 a7 b4 12 be f4 c5 91 c0
       -4.844995 -3.293789 -0.14326726 -4.555414
0000a0 16 1e 8a c0 6c 7a f1 3e de 17 88 3e 21 c4 8e c0
       -4.3161726 0.47163713 0.2658071 -4.4614415
0000b0 42 cf 38 c0 64 f5 83 c0 7c 47 1f bd 5e 4b 88 3e
       -2.88765 -4.123705 -0.038886532 0.2662
0000c0 96 7e 82 c0 1f 40 7d c0 0d 97 81 3d 53 ac 70 c0
       -4.0779524 -3.9570386 0.06327639 -3.7605178
0000d0 21 53 50 3d 17 6e 88 c0 fe 5b 30 c0 5b 00 f3 3e
       0.050860528 -4.2634387 -2.7556148 0.4746121
0000e0 9f 94 9b c0 65 52 82 c0 f5 2a 4d c0 95 dc dd 3e
       -4.861892 -4.072558 -3.205747 0.43332353
0000f0 a0 66 78 3f ad 30 36 bd 93 25 67 be c5 8e 72 3e
       0.97031593 -0.044480015 -0.22572927 0.23687275
000100 88 67 5b 40 41 75 41 40 25 ae 96 3e c0 2f 57 40
       3.428194 3.0227816 0.29429737 3.3622894
000110 24 32 56 40 b6 39 0a 3f c5 c9 21 bf 48 1c 4a 3e
       3.3468103 0.5399431 -0.631985 0.19737351
000120 90 a7 60 40 0b be 4f 40 76 db 8c 3f 76 88 ec 3e
       3.5102272 3.2459743 1.1004474 0.4619786
000130 90 ff ec 3e 40 dc c7 3c 30 73 c6 bd 28 42 a4 be
       0.4628873 0.024397016 -0.09689939 -0.32081723
000140 a8 3b a8 3e d4 d0 f5 be 6b 84 50 40 d3 b2 30 be
       0.32858014 -0.48010886 3.2580822 -0.17255716
000150 07 7a 11 bf 68 9e ff be 9e bb a2 3e a8 22 cb be
       -0.56826824 -0.49925542 0.31783766 -0.39674878
000160 d8 98 1d 40 2a 0c 5f 40 98 61 96 be a2 6d 31 be
       2.4624538 3.4851174 -0.29371333 -0.17326978
000170 3d 8e 74 3f b4 30 5a 40 b8 f2 20 40 d8 a9 45 40
       0.9552954 3.4092226 2.5148144 3.0884914
000180 bd 2d 0f 3f 12 1f f5 3f 49 cc 4c 40 c9 9b 50 40
       0.55929166 1.9150107 3.1999686 3.2595084
000190 6c 32 41 40 be 49 37 be 11 cf 73 3d 38 78 ed 3e
       3.0187025 -0.17899224 0.059523646 0.46380782
0001a0 02 a5 25 3f 92 90 4b 40 24 50 24 3d f3 cd 30 bf
       0.64704907 3.1806989 0.04011549 -0.69064254
0001b0 b6 57 77 40 0e de 4e 40 5d 6b 87 be b6 01 9f 3d
       3.8647285 3.2323031 -0.264491 0.07763998
0001c0 64 7b 14 bf f7 ca 3c 3e be fc 2b 3f 9a 89 ff be
       -0.5800078 0.184368 0.6718253 -0.4990967
0001d0 73 ac 15 3f 45 70 55 40 94 50 04 3f b5 af 39 bf
       0.5846626 3.3349774 0.5168545 -0.7253373
0001e0 85 a2 96 40 dd 8f ef bf f6 eb 1b 3f c9 bc c3 bf
       4.707339 -1.8715779 0.6090692 -1.5291988
0001f0 30 59 eb c0 c3 5d 43 3f 1e db 91 c0 12 0d fb c0
       -7.354637 0.76314944 -4.5579977 -7.8453455
000200 d7 89 e5 c0 2d f3 a2 c0 a6 36 64 be 9f 9d a3 c0
       -7.173076 -5.0921845 -0.22286472 -5.112991
000210 91 4f d4 c0 10 56 e0 c0 c2 fa 85 c0 57 f1 9e c0
       -6.6347127 -7.0105057 -4.18686 -4.9669604
000220 23 9f 2b c0 37 69 fa bf cd 3f ae 3f 28 da 0d 40
       -2.681588 -1.9563359 1.361322 2.2164402
000230 fa b6 5c 40 8a f1 d0 3f f1 6c 21 be 39 7f 73 bf
       3.448668 1.6323712 -0.15764214 -0.95116
000240 2e 80 45 3f f6 e1 bb 3f d3 9b a0 c0 fb 6c f1 3f
       0.7714871 1.4678333 -5.0190215 1.8861383
000250 e3 c3 d3 c0 0c 70 66 3f d1 9d ab 3f 15 73 8b 3f
       -6.617662 0.9001472 1.3407537 1.0894495
000260 0c 2b af 40 9a 5e d5 3f c6 a9 e9 c0 0c 45 ed c0
       5.4740047 1.6669495 -7.3019743 -7.4146786
000270 ed 9f 9b c0 5a 7f 99 40 84 24 6a 3f 3e 32 a9 3f
       -4.863272 4.796796 0.9146197 1.3218458
000280 2b 64 22 40 a6 85 e2 be 40 06 a1 bf ff 34 96 c0
       2.5373638 -0.4424259 -1.2580032 -4.6939692
000290 c3 ab 95 40 8a 35 ca 3f f5 24 46 bf d1 bb 37 bf
       4.677217 1.5797589 -0.7740014 -0.7177096
0002a0 a7 e8 e3 c0 b0 62 15 40 9a 1d 51 be 94 4b a7 c0
       -7.12215 2.3341484 -0.20421448 -5.227976
0002b0 dd 1f b6 3f a1 b0 9c c0 3a 2b b2 c0 2d 93 29 3f
       1.4228474 -4.896561 -5.5677767 0.662402
0002c0 8a 8b 88 c0 19 20 e1 c0 8a a1 93 40 df 7d 96 be
       -4.2670336 -7.035168 4.613469 -0.29392907
0002d0 67 09 1b bf 60 7e 51 be 27 39 6b 3e 92 d8 0b 3d
       -0.6056122 -0.20458364 0.2297102 0.034142084
0002e0 6c f2 5a 40 32 78 24 40 31 48 8f 3e 08 d7 3f 40
       3.4210463 2.5698361 0.27984765 2.9974995
0002f0 28 3f 30 40 28 9e 87 3d c7 17 53 3e 52 ae 29 bf
       2.7538548 0.06621963 0.20614539 -0.66281617
000300 f0 5f 4f 40 4d 1b 43 40 b4 18 07 40 b0 c0 9a 3d
       3.2402306 3.0485413 2.1108828 0.075562835
000310 e1 aa 2a bc e0 51 a9 bd 38 dd 65 3e 06 13 09 be
       -0.010416717 -0.082675695 0.2244767 -0.13386163
000320 6c 7a 42 be 4b 5a 38 be 95 a1 29 40 71 6f 94 3e
       -0.18992013 -0.18003194 2.6504872 0.28991273
000330 7b 1d 39 be bf a2 4a bd e4 27 b9 be 1b f8 24 3d
       -0.18077652 -0.049471613 -0.36163247 0.040275674
000340 5d 0c 13 40 87 a1 27 40 d1 2a 8e 3e f2 e5 c5 bd
       2.2976296 2.6192338 0.2776704 -0.09662999
000350 53 a8 2d bf 83 83 31 40 89 67 ef 3f fd 4d 4d 40
       -0.6783497 2.7736518 1.8703471 3.207885
000360 7a 16 69 3f d0 29 3a 3e d7 09 27 3e 74 cc 56 40
       0.9104992 0.18180013 0.16312347 3.3562288
000370 0c cb 33 40 c8 fc 9d 3e b4 ff 5d 3e 68 b8 e0 bd
       2.809268 0.3085692 0.21679574 -0.10972673
000380 5e a6 84 bf 10 9d 42 40 e0 bb 35 be fd ad 48 3e
       -1.0363271 3.0408363 -0.1774745 0.19597621
000390 b3 d0 61 40 7e 56 19 40 65 a1 a0 bd 45 2e 01 be
       3.528363 2.395904 -0.078432836 -0.12615307
0003a0 69 d6 9a 3e 7b ed 63 be 0b 37 2e bf 62 79 66 be
       0.30241707 -0.2225856 -0.6805274 -0.22507241
0003b0 c8 50 8e 3f a6 4d 54 40 7a 41 2f bf 16 11 8a 3e
       1.1118402 3.3172393 -0.68459284 0.2696616
0003c0 ca d8 57 40 32 6e b0 be 3b f6 14 bf 71 30 60 be
       3.3726068 -0.34459072 -0.5818822 -0.21893479
0003d0 91 af 12 40 d4 8b 0c 40 f9 0e 47 40 56 0a cf 3f
       2.2919657 2.1960344 3.1102889 1.6175029
0003e0 fb d9 cd 3f d7 d5 2d 40 c7 ab be be 5d dd 36 40
       1.6082147 2.7161767 -0.3724043 2.857261
0003f0 eb c6 d7 3f fc a7 12 40 42 e7 39 40 68 ac 36 40
       1.685758 2.291503 2.9047399 2.8542728

bias f4 [60]
000000 f0 5d 46 3e 62 13 f8 be 31 ab 1e 3e 4e 34 1d 3e
       0.19371772 -0.48452288 0.15494992 0.15351984
000010 ee 58 ff bd c8 04 8e 3e ba 22 92 be f6 13 b7 bd
       -0.12468134 0.27738023 -0.2854212 -0.08939354
000020 f2 db 36 3f 2d 78 86 be 73 01 0d 3e d0 59 62 3f
       0.7142936 -0.26263562 0.13770084 0.88418293
000030 9c 88 fb be 2b 90 89 bd f0 2e 96 bd 2e 4a ce bd
       -0.49127662 -0.06716951 -0.07333171 -0.100727424
000040 f7 7e 19 3e c5 6c 1f 3f 1a 8d 6d be 09 63 e0 be
       0.1498984 0.62275344 -0.23198357 -0.43825558
000050 db d3 a6 be 69 c3 f5 bd 36 1b c2 3d 58 16 f9 3e
       -0.32583508 -0.12000162 0.09477846 0.4864986
000060 46 39 f8 bd 71 fc 90 3e 3a 56 06 bd 58 83 9e 3d
       -0.12120299 0.28317598 -0.032797076 0.077398956
000070 13 2d d4 3d e4 70 12 be 2d eb 44 be a7 74 f4 3d
       0.1036016 -0.14300877 -0.19230337 0.11936312
000080 53 d2 d1 3d 96 b5 1d be d0 bd 2b 3c 95 2f b9 3e
       0.10245194 -0.15401301 0.010482267 0.36169115
000090 62 ad 4f bd 1f 81 92 be f5 a4 df 3d c6 b4 b0 3e
       -0.05070246 -0.28614137 0.10920135 0.3451292
0000a0 51 73 a3 bc 3b 7e bd be ba 67 fe bd 9b 63 da bd
       -0.019952448 -0.3701037 -0.12422128 -0.106635295
0000b0 64 5f 64 be ac 30 ed bd 89 db 1b 3f e6 82 1a bf
       -0.22302014 -0.11581549 0.6088186 -0.60355985
0000c0 cd 52 d1 bd de af 5b 3f 64 51 39 3e 60 70 7c be
       -0.10220871 0.8581523 0.18097454 -0.24652243
0000d0 26 1b 4e 3e 85 f5 2c 3d fd b3 f7 bd ea 82 f9 3e
       0.20127544 0.042226333 -0.12094877 0.48732692
0000e0 4e 49 95 3d ae 4b 4f 3f 21 d5 1f 3f b6 5a e9 3d
       0.072893724 0.80974853 0.62434584 0.11394255

bias f4 [80]
000000 ca 54 b7 be 63 ba d8 3e 7d 42 e8 3b 85 ed ff 3c
       -0.35806876 0.42329702 0.007088004 0.031241188
000010 2b ab 8c be a3 44 b4 be 3e d3 6e be 69 3b 3d 3f
       -0.2747434 -0.35208616 -0.2332277 0.7391878
000020 16 43 3c 3e 24 15 6b 3e 87 37 85 3c 05 1d 6d 3e
       0.18384966 0.22957283 0.016261829 0.23155601
000030 64 e9 8f bf ae 51 94 3e 5e 66 8d bf d3 dd 5c 3f
       -1.12431 0.28968567 -1.1046865 0.86275977
000040 a0 c0 bd be ba 2a 89 be 64 4e 21 3f 7a f9 70 3e
       -0.37061024 -0.2679041 0.6301024 0.23532668
000050 2b a5 1a 3e 1d d5 86 3e 12 0f ad bd c0 d9 ac be
       0.15102069 0.26334468 -0.0845014 -0.3375988
000060 32 75 49 3d 43 73 1a be 85 07 f1 3e 12 8b 13 be
       0.04918403 -0.15083031 0.4707605 -0.1440852
000070 4a 25 99 3e 2a 48 04 bf be 0a 56 bf 14 c0 13 3f
       0.29911262 -0.51672614 -0.8361014 0.5771496
000080 0e 9f de 3e 99 33 82 3e 42 ce 08 bd f6 5c 85 3e
       0.43480724 0.2542999 -0.033399828 0.26047486
000090 18 2d 5d bf e5 a2 9b be 6c db d9 3e 92 a8 92 be
       -0.8639693 -0.30397716 0.42550218 -0.28644234
0000a0 ba 5b 83 bd 5d 19 7a bf 2e fa 9d 3e f7 0c 7b 3e
       -0.0641398 -0.9769495 0.30854934 0.24516664
0000b0 e4 2c 08 3e 27 0c 82 3f 69 88 10 3e 5a d1 89 3e
       0.13298374 1.0159959 0.14114536 0.26917535
0000c0 10 16 d7 3d fe dd 7d be b5 3f 86 3e 3c b0 27 bf
       0.10502255 -0.24791715 0.2622048 -0.6550329
0000d0 49 d9 dd 3e 44 58 84 bf b1 47 c6 3d 1c 74 0d bf
       0.43329838 -1.0339437 0.09681643 -0.55255294
0000e0 1e de b9 bd 59 83 10 bf c0 c8 16 3f 28 32 aa 3e
       -0.090755686 -0.5645042 0.5890007 0.3324139
0000f0 a9 4c b3 3e 7d 91 bc bd b2 29 21 3f ed bc e8 3e
       0.35019425 -0.09207437 0.62954247 0.4545664
000100 a9 6f 9b 3e aa 96 f1 3e 60 b9 bd 3d 32 79 99 3e
       0.30358627 0.4718526 0.09263873 0.29975277
000110 8a 77 12 3f c8 c1 d2 be 2a 0a c0 3e 37 fc 04 3e
       0.5721365 -0.41163468 0.37507755 0.12986837
000120 40 5b 33 3e f8 ac 86 3e 6e 9f 28 be 85 80 8b bf
       0.17515278 0.2630384 -0.16467068 -1.0898596
000130 9c 09 4b be 3f fa 22 be 9e 58 b0 3e ed cd 2b be
       -0.19827884 -0.15915774 0.3444261 -0.16777773

weight_orig f4 [80, 60]
000000 5f c0 93 3d fb 46 9e 3d c3 ff b6 3d 93 ca 05 bc
       0.07214426 0.07728382 0.089355014 -0.008165973
000010 1c 47 9e 3d bf 87 49 3c 04 72 85 bd 4c 04 b9 bd
       0.07728407 0.012300431 -0.065158874 -0.09034023
000020 7a 98 93 3d 7f fd be 3d 53 f4 cc 3c 03 a1 3c be
       0.07206817 0.09325694 0.025018847 -0.18420796
000030 4b d4 fc bd bd 21 7f 3a c6 e0 0e 3c ac 60 54 3c
       -0.12345179 0.00097325054 0.008720582 0.0129625015
000040 a5 f2 19 3e 14 fb 9f be bf 69 08 3d 18 14 fe 3d
       0.15033968 -0.31246245 0.033303972 0.12406176
000050 e4 a7 be 3d f6 e1 9a ba f2 1a e1 bd ea f2 b8 bd
       0.09309366 -0.0011816609 -0.109914675 -0.09030707
000060 42 fc d8 3d b9 54 3d 3d c0 0a 06 be 4b aa 9f 3d
       0.10594989 0.046223376 -0.13090038 0.07796153
000070 9f 8c 7a be 29 29 01 3d 43 e4 92 3d 7c 96 a4 3d
       -0.24467705 0.031533394 0.07172444 0.08036515
000080 06 12 db bc b2 65 a4 3d ca 63 23 3a e6 13 18 bd
       -0.026741993 0.08027209 0.0006232826 -0.03712835
000090 7d 0e 92 3b 34 6d e3 3c 69 5f 66 bc e9 1c 1d be
       0.0044572935 0.027762033 -0.0140608335 -0.1534306
0000a0 45 33 90 3d 0b 86 8c bd d7 45 1f be 1d 3b df 3a
       0.07041029 -0.06861504 -0.15553986 0.0017031167
0000b0 e9 68 d7 3d 4b a9 f3 3d 0a 43 28 3e 8c 30 aa 3c
       0.10518057 0.118975244 0.16431823 0.020775102
0000c0 ac 60 42 3d 58 88 44 3d bf a1 7d 3d 97 16 18 3d
       0.047455475 0.04798159 0.06192183 0.03713092
0000d0 20 8e f1 3c 54 8d c4 bd c2 04 8c bd fb ad fe bc
       0.029486716 -0.09597269 -0.06836845 -0.03108882
0000e0 94 44 fc bd e9 51 20 3e 47 e2 92 3e d0 03 24 3e
       -0.12317768 0.15656246 0.2868826 0.1601708
0000f0 b0 c9 96 be 30 fe 8e bd 61 4d ba 3d e1 b6 98 bd
       -0.2945075 -0.06982076 0.0909679 -0.074567564
000100 cb 1e 96 3c 23 8e 4b 3d 07 e4 51 bd ab ce d1 bd
       0.01832523 0.0496961 -0.051242854 -0.10244497
000110 51 b6 be bd 03 1c c4 bd 1a 0d ff bc 70 ef 98 bd
       -0.09312118 -0.09575655 -0.031134177 -0.07467544
000120 71 95 2a be 71 50 80 3e c0 4b 13 3d 2c 90 3a 3e
       -0.1665857 0.25061372 0.035960913 0.1821906
000130 09 dd 71 3b 10 91 0f 3e b0 e3 ed bd fe 30 9e 3d
       0.003690543 0.1402018 -0.116156936 0.07724188
000140 e3 e2 15 be 5c d4 5c bd 60 ae 50 3e d2 7a 66 3e
       -0.14637332 -0.05391346 0.20379019 0.2250779
000150 e3 21 51 be 0c 86 1a be 5d 91 29 3e 85 13 a5 3d
       -0.20423083 -0.15090197 0.16559358 0.08060364
000160 80 e8 dc bc fc df a6 bd 52 61 8c bc 85 dd 93 bd
       -0.026966333 -0.081481904 -0.01713625 -0.07219986
000170 c3 89 c9 3c d1 07 c9 bd 4d df d8 be 6e c1 8d 3b
       0.024601823 -0.09815944 -0.42357865 0.004326037
000180 98 6a 6f 3b 13 f8 37 bd ed 0a 18 3d ff c9 80 be
       0.003653204 -0.044914316 0.037119795 -0.2515411
000190 76 72 0f 3e 54 d0 3d be a9 e5 c5 bb 5d 41 fa bd
       0.14008507 -0.18536502 -0.0060393405 -0.12219498
0001a0 a7 1e 43 3c d2 0a 08 be f4 6c 97 3e 9a fb 73 be
       0.011909164 -0.13285378 0.29575312 -0.23826447
0001b0 f1 45 55 bd aa c4 03 3e 39 1d b7 3d fa 56 97 3d
       -0.052068654 0.1286799 0.08941121 0.07389636
0001c0 b0 a4 8d 3c 42 7c ea 3c 87 3a e1 3d cd b0 49 bd
       0.017290443 0.028623704 0.10997491 -0.049240876
0001d0 95 63 21 3e b8 ca bc bd 61 fc 4a be 05 8e 26 bd
       0.15760644 -0.09218353 -0.19822837 -0.040662784
0001e0 bb 89 1f be 58 b9 e0 3c d6 ff a8 bd 90 f5 6a bc
       -0.15579884 0.027432129 -0.08251922 -0.014340773
0001f0 ca 82 56 3b b7 f0 38 be 8c b2 fa 3d d6 67 80 bc
       0.0032731765 -0.18060575 0.12241086 -0.015674513
000200 8c 79 8b bd cb 18 db bc c3 96 83 3d 81 b8 d9 3d
       -0.068102926 -0.02674522 0.0642524 0.106308945
000210 42 33 73 bd 62 98 b5 3d f0 d2 75 bd b2 7a a4 3d
       -0.059375055 0.08866955 -0.06001562 0.08031215
000220 b0 88 70 b7 f2 f4 a6 3d 9d c3 b7 3d 45 10 7e bc
       -1.433694e-05 0.08152188 0.08972857 -0.015506809
000230 73 d0 fb bd 88 21 02 3d 76 a7 56 3e 3a 64 0a be
       -0.12295618 0.03177026 0.20962319 -0.13514796
000240 c1 3d 01 3c 40 4f 8a bc ed 67 28 3d 8d 46 eb 3c
       0.007888258 -0.016883492 0.041114736 0.028720165
000250 f9 d2 fb 3d 56 c8 1a bd bc a8 d6 bd 31 d0 c6 bc
       0.12296099 -0.03778871 -0.10481402 -0.024269195
000260 94 b6 d0 3d 46 19 0b 3d da 55 3d be 9e fc a5 bd
       0.10191074 0.03395965 -0.18489781 -0.081048235
000270 00 7d 36 bd f6 a0 ed bc 30 c5 02 bc 25 0f 75 3d
       -0.044552803 -0.029007416 -0.0079815835 0.059828896
000280 35 de aa bd 3f 46 c8 3d 16 84 9d bd ba c7 ac 3c
       -0.08343164 0.097790234 -0.07691209 0.02109133
000290 84 28 b9 3d dc 80 1d be 31 79 15 bd 3f d5 7f bc
       0.09040931 -0.15381187 -0.03649253 -0.015614807
0002a0 91 2f 1e 3c 8f 7e ef bc 09 c5 d1 3d 42 a8 c7 3d
       0.009654895 -0.029235153 0.102426596 0.097488895
0002b0 dc 51 2e bd eb 15 fe bd 95 ca e8 bc c0 2b c1 bc
       -0.042558536 -0.12406524 -0.028416911 -0.023580432
0002c0 c1 d3 83 3d 24 3d 60 3e 46 9b 99 bc 1a 46 02 bd
       0.06436873 0.21898323 -0.018750798 -0.031805135
0002d0 f0 15 ec bb 61 45 cc 3d 03 f6 f7 3d 00 4d 2c 3e
       -0.0072047636 0.099741705 0.1210747 0.16826248
0002e0 48 ca 4e 3e 2e 4d 13 bc 7c 1d ba 3d 65 e2 71 3e
       0.20194352 -0.008990569 0.09087655 0.23621519
0002f0 40 b4 8a 3e c0 52 33 3e 52 07 bb 3e b1 79 bf 3e
       0.27090645 0.17512035 0.36529022 0.3739753
000300 ef 0b 57 3e 86 56 f4 3d b0 51 bd bd 84 7a 61 3e
       0.21000646 0.119305655 -0.09244096 0.22019392
000310 a7 c3 49 3e 06 ac e4 3c ee a9 8b 3d 5f fb 0d 3e
       0.19703542 0.027914058 0.06819521 0.13865422
000320 1b 3b 26 3e cc f0 9e 3d 43 98 ba 3d 2f 5c aa 3d
       0.16233484 0.07760772 0.09111073 0.08318364
000330 30 e0 1d 3e 2c 1b 8a 3d 13 8f 11 3e 85 de 41 3e
       0.15417552 0.06743464 0.14214735 0.1893254
000340 0b 70 5a 3e 55 9d 03 3e 01 2f ba 3d 2e d3 5c 3e
       0.21331804 0.12852986 0.090909965 0.21564934
000350 8f 6d 9a bc 2b 33 71 3e a8 0a 46 3e 6f 8a d6 b9
       -0.01885107 0.23554675 0.19340003 -0.00040920402
000360 28 2f 04 3d 0b 1b 34 3b de c3 ce 3c f4 f4 a8 3d
       0.032271534 0.002748194 0.025239881 0.08249846
000370 f5 88 5f 3d 34 66 1b 3e af 84 1a 3e ff 09 84 3d
       0.05457397 0.15175706 0.15089677 0.06447219
000380 51 6f 79 3e 67 93 52 be b2 a8 bd 3e 4f e7 95 3d
       0.2435887 -0.20564042 0.37042767 0.07319509
000390 06 ce 34 3e bb 20 a4 3e a8 32 e5 3d 7d 4d c8 3d
       0.17656717 0.3205622 0.111913025 0.09780405
0003a0 52 f1 6e 3d 82 72 ef 3d 9e cf 0b 3e 14 b9 ca bc
       0.05833561 0.116917625 0.13653418 -0.024746455
0003b0 98 14 5e 3e de e1 ef 3e ef 05 34 3e dc 8e e7 3d
       0.21687543 0.4685201 0.17580388 0.11306545
0003c0 3a 09 3b 3d 08 3a 89 3c b3 c6 cd bd d1 85 5f bb
       0.045663096 0.016751304 -0.100476645 -0.003410686
0003d0 bb b7 8e bd 9c 35 84 3e 32 01 1d be ad 45 4f 3c
       -0.069686376 0.2582215 -0.15332487 0.012650889
0003e0 8f 34 f3 bd 63 17 dc bc 48 3a 05 3e 1a 57 90 3d
       -0.11875259 -0.02686662 0.13010514 0.07047863
0003f0 fc ce a9 be ee 8a 0d be dd ae 63 3c 27 de 1c be
       -0.3316573 -0.13822529 0.013896671 -0.1531912

weight_u f4 [80]
000000 76 0f 0a 3c df db 02 bd ab d4 38 3c e0 b7 ca bd
       0.008426538 -0.031947967 0.011281173 -0.098983526
000010 6d 9f 4c bd 7a 6b 19 3d e7 d0 9e be 8f a8 5a 3d
       -0.049956728 0.037456013 -0.31018755 0.053383406
000020 b5 e9 bd bd 2d 15 08 bd c3 45 85 bd 0c e6 7d bd
       -0.09273092 -0.03322332 -0.065074466 -0.061986968
000030 94 c9 42 bb a8 71 02 bd 6f e1 de bd 70 2d 2b bc
       -0.00297222 -0.031846672 -0.10882842 -0.010447845
000040 fb b6 08 bd dd a4 86 3c 1e 9f 9f bc c8 6d de 3c
       -0.03337763 0.016436035 -0.019485053 0.027151957
000050 9d a8 92 bd 12 6c 53 3e de 15 9e bd 71 0d 50 bc
       -0.07161067 0.20646694 -0.077190146 -0.012698517
000060 c6 64 bd bc 11 17 f1 3e 33 6e 31 bd f2 bb 50 3d
       -0.023119342 0.4708791 -0.043317985 0.05096049
000070 2c f3 8c bd 70 4b 43 be c5 a6 bd bd 90 fd e9 3d
       -0.06882319 -0.19071746 -0.092603244 0.11425316
000080 c5 2c 19 3e 26 3e 4b 3d ad 38 87 bc 82 fb 0a 3d
       0.14958484 0.049619816 -0.016506517 0.033931263
000090 4d 5a bf 3d 7a 8d 54 3a 7e 3a 09 bd 86 ee 02 be
       0.093433954 0.000810824 -0.033503048 -0.12786302
0000a0 be b6 37 be d7 3b 40 bd 09 be 26 bd 96 9e 07 3e
       -0.17940804 -0.046932068 -0.040708575 0.1324409
0000b0 6b 26 72 bd 8e db 3e be be 08 3b bd f4 c2 d5 3c
       -0.05911867 -0.18638441 -0.045662634 0.026093937
0000c0 82 8c 64 bd 3d 96 a8 3d 71 55 2b 3e 56 b6 54 3d
       -0.05579806 0.08231781 0.16731812 0.0519317
0000d0 0d 88 90 3c 6a bc 14 bd 05 a9 07 bd ff 66 80 3e
       0.017642999 -0.0363125 -0.033120174 0.2507858
0000e0 7e a0 fd bc da 3a 4d bd 61 a5 03 bd 14 60 53 bc
       -0.030960318 -0.050104953 -0.03214014 -0.012901325
0000f0 c7 ad a4 3d c1 c0 52 bd 89 72 59 be cf a1 7e bd
       0.08040958 -0.051453356 -0.21235098 -0.06216603
000100 87 d0 02 bc 63 f1 b6 3b 4c 83 06 3e b1 35 8f 3d
       -0.007984287 0.0055829748 0.13136023 0.06992663
000110 c5 35 01 bd 99 bf 21 3d 62 18 b4 bc a9 bc 96 3e
       -0.03154542 0.039489362 -0.021984283 0.2944081
000120 bb ea 16 bd 2b f0 e6 3c 61 00 52 bd 25 65 fb bc
       -0.03684495 0.028190693 -0.051269893 -0.030687878
000130 c5 81 87 be 66 bc 87 bd ad bf 10 3d 9a ed f1 3b
       -0.26466194 -0.06627731 0.035339046 0.0073830606

weight_v f4 [60]
000000 77 31 f8 bd 71 fd 29 bc 7b fc 90 3d 38 4c 95 3d
       -0.1211881 -0.010375367 0.07079407 0.07289928
000010 b8 32 39 bc 1c ec 6b 3e bc 4a ad bc dd f9 8e bd
       -0.011303596 0.23039287 -0.0211538 -0.069812514
000020 2e 6c 90 bd 75 82 09 bc 71 7a 9f bd d5 7e fa bc
       -0.07051884 -0.00839292 -0.07787026 -0.030578056
000030 f3 6f 22 3d 45 0e 01 bd 0a 35 00 3c 0d 44 86 bd
       0.039657544 -0.03150775 0.0078251455 -0.065559484
000040 a2 39 49 be 1b 94 ed be a6 30 72 bc 8e 40 f0 bb
       -0.19650891 -0.46402058 -0.0147821065 -0.0073319143
000050 58 9d d8 bc cc 55 bc 3c d9 be 3b be 62 a8 9f be
       -0.026442215 0.02299013 -0.18334521 -0.31183153
000060 31 b8 65 be 6d df 65 bc 00 7e 83 bd 3d df dc bc
       -0.22433545 -0.01403032 -0.06420517 -0.026961917
000070 f1 32 cf 3e 03 f1 93 bc 94 12 b7 3d 3d c7 76 3d
       0.40468553 -0.01805926 0.0893909 0.060248602
000080 d9 16 c4 bb bf ab f9 bc 08 44 8e be 8e 07 6d 3a
       -0.005984169 -0.030477403 -0.2778628 0.0009041958
000090 eb 99 10 3e be 6a 3f bd 4d 6d b8 3c 4f a5 bd 3d
       0.14121215 -0.046732657 0.022513056 0.09260046
0000a0 40 c8 c0 bc 46 23 07 bd 15 76 5b 3d 1b 41 56 3c
       -0.023532987 -0.032992624 0.05357941 0.013077046
0000b0 df 75 1f bd 01 47 e6 3c f7 3f 57 be ad 8a a6 bd
       -0.03893077 0.02811003 -0.21020494 -0.08131919
0000c0 07 d9 85 3c be 84 e9 bc 7f b2 9c bd ee f7 af 3c
       0.016338838 -0.02850568 -0.07651233 0.021480527
0000d0 b3 8f 4a 3e b7 36 75 bd 24 3b 95 3c 68 76 2f be
       0.1978138 -0.059866633 0.018216677 -0.17135012
0000e0 b0 68 8e bd 42 d3 ee 3d 9e d3 15 3d 5c e1 eb bd
       -0.06953561 0.11661388 0.036578767 -0.11517593

weight f4 [80, 60]
000000 68 c5 fe 3c e4 75 08 3d 52 c6 1d 3d 07 b3 66 bb
       0.03109999 0.033315554 0.03851921 -0.0035201923
000010 00 76 08 3d 66 c0 ad 3b 53 1a e6 bc a8 83 1f bd
       0.03331566 0.0053024767 -0.028088724 -0.038943917
000020 9d 80 fe 3c 12 aa 24 3d 26 b4 30 3c e9 a0 a2 bd
       0.031067187 0.040201254 0.010785138 -0.079408474
000030 c5 fa 59 bd f7 f6 db 39 25 5e 76 3b 8e 1a b7 3b
       -0.053217668 0.00041954938 0.0037592736 0.0055878824
000040 53 ba 84 3d e0 ed 09 be 58 38 6b 3c 7d 0e 5b 3d
       0.06480851 -0.13469648 0.014356695 0.053480614
000050 44 60 24 3d a8 88 05 ba b6 13 42 bd ab 74 1f bd
       0.04013087 -0.0005093911 -0.04738208 -0.038929623
000060 8d 13 3b 3d d9 3b a3 3c b0 21 67 bd 3a a8 09 3d
       0.045672942 0.019925999 -0.05642861 0.0336077
000070 8d 03 d8 bd fe b6 5e 3c de 49 fd 3c b7 e6 0d 3d
       -0.10547552 0.013593433 0.030919012 0.034643855
000080 be df 3c bc a7 bc 0d 3d 4b de 8c 39 92 1d 83 bc
       -0.011527954 0.03460374 0.00026868502 -0.016005311
000090 40 d9 fb 3a 0f 14 44 3c 4e 9e c6 bb e8 74 87 bd
       0.0019214526 0.011967673 -0.006061352 -0.06614095
0000a0 d2 a5 f8 3c d8 4e f2 bc 9f 51 89 bd 05 76 40 3a
       0.030352507 -0.029578611 -0.06705021 0.0007341805
0000b0 cc b7 39 3d 47 13 52 3d a0 11 91 3d 1c bb 12 3c
       0.045341298 0.051287916 0.0708344 0.008955743
0000c0 b8 95 a7 3c 59 71 a9 3c e7 ab da 3c e4 1f 83 3c
       0.020457134 0.020683931 0.026693298 0.016006418
0000d0 6e 42 50 3c a5 75 29 bd ea 6f f1 bc 2a 93 5b bc
       0.012711151 -0.04137196 -0.02947231 -0.013401786
0000e0 dd 7e 59 bd bd 38 8a 3d 72 46 fd 3d 43 68 8d 3d
       -0.053099502 0.06749103 0.12366952 0.06904652
0000f0 e0 00 02 be dd 90 f6 bc 61 9f 20 3d 16 aa 03 bd
       -0.12695646 -0.030098373 0.039214496 -0.03214463
000100 89 6d 01 3c 56 7f af 3c aa f5 b4 bc 40 e3 34 bd
       0.00789965 0.021423023 -0.022089798 -0.044162035
000110 b4 6c 24 bd f3 13 29 bd 2d e5 5b bc d9 da 03 bd
       -0.04014273 -0.04127879 -0.013421339 -0.03219113
000120 18 12 93 bd 4d 41 dd 3d 50 fc 7d 3c f7 d8 a0 3d
       -0.071811855 0.10803471 0.0155020505 0.07853883
000130 76 86 d0 3a 20 8e 77 3d 58 19 4d bd ef 62 08 3d
       0.0015909213 0.060438275 -0.050072998 0.033297475
000140 e3 39 81 bd 01 64 be bc b2 ea b3 3d f0 b5 c6 3d
       -0.06309869 -0.023241045 0.08784999 0.097026706
000150 49 4e b4 bd 69 39 85 bd de 31 92 3d 84 52 0e 3d
       -0.08803994 -0.06505091 0.07138418 0.03474666
000160 5e 75 3e bc 83 df 0f bd 86 0f f2 bb ab f7 fe bc
       -0.011624662 -0.035125267 -0.0073871044 -0.031123957
000170 23 c2 2d 3c 1a 52 2d bd 95 fa 3a be ac 6e f4 3a
       0.010605368 -0.042314626 -0.18259652 0.0018648705
000180 5e 6a ce 3a 68 9c 9e bc d5 15 83 3c e6 12 de bd
       0.0015748253 -0.01936169 0.016001621 -0.10843448
000190 5b 59 77 3d 6b a6 a3 bd 84 9e 2a bb ab c2 57 bd
       0.06038795 -0.07990726 -0.0026034424 -0.052675884
0001a0 83 39 a8 3b a9 94 6a bd a3 8d 02 3e 3e 5a d2 bd
       0.005133809 -0.05727068 0.12749343 -0.102711186
0001b0 39 e0 b7 bc fc 35 63 3d b8 df 1d 3d b0 7a 02 3d
       -0.022445785 0.055471405 0.038543433 0.031855285
0001c0 1c 3d f4 3b 08 2a 4a 3c f1 2e 42 3d cb e3 ad bc
       0.007453574 0.012339123 0.047408048 -0.021226784
0001d0 b0 24 8b 3d de c4 22 bd ab 01 af bd d8 98 8f bc
       0.06794107 -0.03973853 -0.0854524 -0.017528936
0001e0 27 8c 89 bd 90 bf 41 3c 66 b4 11 bd 9d 92 ca bb
       -0.06716185 0.011825457 -0.035572432 -0.0061820284
0001f0 66 f1 b8 3a c6 72 9f bd 40 24 58 3d a4 69 dd bb
       0.0014110028 -0.07785563 0.052768946 -0.006756978
000200 df 7f f0 bc 94 e5 3c bc d5 e6 e2 3c d9 b5 3b 3d
       -0.029357849 -0.011529345 0.02769796 0.04582772
000210 83 ad d1 bc 7a 90 1c 3d 9c f0 d3 bc c2 ce 0d 3d
       -0.025595432 0.03822372 -0.025871567 0.034621008
000220 07 61 cf b6 95 f1 0f 3d 2d 6f 1e 3d 31 0b db bb
       -6.180376e-06 0.0351425 0.038680244 -0.0066846837
000230 be 1a 59 bd 44 63 60 3c 04 11 b9 3d ae a1 6e bd
       -0.05300402 0.013695542 0.090364486 -0.05825966
000240 81 da 5e 3b 82 7d ee bb 6d 31 91 3c 71 d8 4a 3c
       0.003400475 -0.0072781453 0.017723763 0.012380705
000250 eb 1c 59 3d 90 72 85 bc 1d 12 39 bd b8 68 2b bc
       0.053006094 -0.01628998 -0.04518329 -0.010461979
000260 c5 f1 33 3d dd d9 6f 3c d3 3c a3 bd 7c 1b 0f bd
       0.04393174 0.014639345 -0.07970586 -0.03493832
000270 95 55 9d bc d1 df 4c bc 76 7d 61 bb ce 47 d3 3c
       -0.019205848 -0.012504534 -0.0034407056 0.025791075
000280 d5 50 13 bd 37 ab 2c 3d dc cd 07 bd e0 f6 14 3c
       -0.03596576 0.04215547 -0.033155307 0.009092063
000290 e2 a2 1f 3d 14 cb 87 bd c3 de 80 bc bb 91 dc bb
       0.038973697 -0.06630531 -0.015731221 -0.0067312396
0002a0 b4 61 88 3b 95 7b 4e bc f2 da 34 3d 01 23 2c 3d
       0.0041620377 -0.012602706 0.044154115 0.04202557
0002b0 ae 4a 96 bc 10 10 5b bd 22 b4 48 bc 60 8b 26 bc
       -0.018346157 -0.053482115 -0.012249978 -0.0101650655
0002c0 01 50 e3 3c 7b 54 c1 3d 00 6f 04 bc 53 a2 60 bc
       0.02774811 0.094399415 -0.008083105 -0.013710576
0002d0 3e 8b 4b bb 52 1d 30 3d 46 c8 55 3d 11 8d 94 3d
       -0.0031058337 0.042996712 0.05219295 0.07253469
0002e0 54 49 b2 3d c7 fe 7d bb 16 76 20 3d 15 8b d0 3d
       0.087053925 -0.0038756595 0.039175116 0.10182778
0002f0 ab 2b ef 3d 04 9b 9a 3d b0 3f 21 3e 26 15 25 3e
       0.11678251 0.07549098 0.15746951 0.16121349
000300 a3 67 b9 3d a1 a8 52 3d 3b 39 23 bd 1c 66 c2 3d
       0.0905297 0.05143035 -0.0398495 0.09492132
000310 0c f4 ad 3d ef 26 45 3c 4c d3 f0 3c 95 d2 74 3d
       0.08493814 0.012033208 0.02939763 0.05977114
000320 5c 51 8f 3d 4d 08 09 3d f0 df 20 3d bb e0 12 3d
       0.0699794 0.033455182 0.039276063 0.03585885
000330 44 1d 88 3d b6 23 ee 3c 8c fd 7a 3d 81 25 a7 3d
       0.06646207 0.029069763 0.061276957 0.0816145
000340 16 54 bc 3d 2a f2 62 3d 31 85 20 3d fc 62 be 3d
       0.091957256 0.055406727 0.03918952 0.092962235
000350 4c 24 05 bc 02 f4 cf 3d 69 be aa 3d fd f7 38 b9
       -0.00812633 0.10153963 0.08337099 -0.0001763999
000360 9c ed 63 3c b3 47 9b 3a cc 43 32 3c 04 ab 11 3d
       0.013911631 0.001184693 0.010880422 0.035563484
000370 22 b9 c0 3c ab fa 85 3d 3c 38 85 3d 89 ad e3 3c
       0.023525778 0.06541952 0.065048665 0.027792709
000380 92 0d d7 3d de 8c b5 bd 3f 84 23 3e b3 3d 01 3d
       0.10500635 -0.08864759 0.15968417 0.03155298
000390 03 e2 9b 3d 31 81 0d 3e 02 9b 45 3d 75 b1 2c 3d
       0.07611468 0.13818814 0.04824353 0.042161424
0003a0 d0 01 ce 3c 31 71 4e 3d 48 14 71 3d a5 c7 2e bc
       0.025147349 0.050400916 0.058857232 -0.010667716
0003b0 19 78 bf 3d 33 d1 4e 3e 80 35 9b 3d ee a3 47 3d
       0.09349079 0.2019699 0.07578564 0.04874032
0003c0 55 41 a1 3c 7f 9f ec 3b 87 69 31 bd 6d b6 c0 ba
       0.019684473 0.007221162 -0.04331353 -0.0014702805
0003d0 60 17 f6 bc bd f8 e3 3d 03 5d 87 bd b7 b3 b2 3b
       -0.030040443 0.111314274 -0.066095375 0.0054535526
0003e0 a2 ae 51 bd 14 c1 3d bc 38 ba 65 3d 9b e3 f8 3c
       -0.051191933 -0.011581678 0.056085795 0.030381968
0003f0 fe 66 12 be b2 10 74 bd ab 4c c4 3b cc 3e 87 bd
       -0.14297101 -0.059586234 0.005990585 -0.066037744

bias f4 [80]
000000 41 2e 79 3d 2f b4 80 3e ba 5e 1a 3e ad 2e 65 3e
       0.060835127 0.2513747 0.15075198 0.22381087
000010 b8 87 bb 3d ec b8 2b be 5a 98 d0 bd dd 69 91 3e
       0.09156746 -0.16769761 -0.10185309 0.2840108
000020 85 ce 86 3e 52 7b ff 3d 46 a1 9d 3d e6 67 b4 3b
       0.26329437 0.12474693 0.07696776 0.0055055497
000030 e5 9e 96 3d e4 92 98 3d 05 53 e8 3d d8 99 26 3e
       0.073545255 0.07449892 0.1134396 0.16269624
000040 82 0f ba 3e 24 cb 82 be 4e 6d 14 3d 97 0b 0c 3e
       0.36339957 -0.2554561 0.036237054 0.13676296
000050 8d ec 5f be 75 8d 16 3e 0f 2e 12 3e 27 9e 1a 3e
       -0.2186758 0.14702399 0.14275382 0.15099393
000060 c1 30 c8 3d b8 63 14 be eb bb 3c be b6 37 80 be
       0.09774924 -0.14491165 -0.1843106 -0.25042504
000070 98 1b 6d be c2 27 30 3d 0e d2 2f 3e 8d 5e a7 3d
       -0.23155057 0.043006666 0.17169973 0.08172331
000080 31 9f fc bd 84 6e 12 be 7d ba 32 be c8 58 c9 3e
       -0.12335051 -0.14299971 -0.17453952 0.39325547
000090 1e ad a9 bd 98 3c 89 3d 1b c5 5b 3e be 13 97 3e
       -0.082849726 0.067010105 0.21461909 0.2950725
0000a0 0a 5d 76 3e c7 b2 71 bd 81 3b fd bd 13 25 72 3e
       0.24058929 -0.059008386 -0.12364865 0.23646955
0000b0 18 9a fb bd 4c 7f 89 be c9 23 60 be 04 b4 8b 3d
       -0.122852504 -0.26854932 -0.21888651 0.06821445
0000c0 d4 d3 2a 3e 74 59 35 3e 45 0b 4a 3e 18 99 3a 3e
       0.16682369 0.17709905 0.19730861 0.18222463
0000d0 86 18 ee 3e 5f b6 4a bd 6a 29 d1 bd e2 24 64 3e
       0.46503085 -0.04949033 -0.10212977 0.22279695
0000e0 24 42 e3 3d 6e 61 ad 3d e6 aa 00 3f 08 e8 32 3e
       0.110966 0.08465849 0.5026077 0.17471325
0000f0 e0 2c 1c be f4 37 58 3d 5f 4a 8b 3e 39 81 f2 bb
       -0.15251493 0.052787736 0.27205178 -0.0074006584
000100 34 4b 0a 3e f7 7e 0a 3b 2c 1d ce 3e 52 77 2b 3e
       0.1350525 0.0021132806 0.4025663 0.16744736
000110 2c 90 bd 3c fe b6 94 3d 8d 11 27 3e 7d 85 d9 3d
       0.023140036 0.072614655 0.16315289 0.10621164
000120 b4 6b 81 3e 52 7a 16 3e ee ad 1b 3e db fd 8b bd
       0.25277483 0.14695099 0.15203068 -0.068355285
000130 27 25 5c bd 22 60 d1 3c 01 e4 12 be c6 e4 24 3d
       -0.05374637 0.025558535 -0.14344789 0.040257238

weight_orig f4 [80, 80]
000000 ab 0f d0 3d ae 74 f8 3d 53 d8 c3 3c 82 a1 28 bd
       0.101592384 0.1213163 0.023906862 -0.04116965
000010 07 db d3 bd 3d 4f 8e bb 6c 5e 17 3e 02 86 88 3d
       -0.103445105 -0.004342942 0.14782113 0.06666185
000020 35 1e bb bd 30 9e 08 bf 44 7f e3 bd 52 2f 69 bd
       -0.09136621 -0.53366375 -0.11108258 -0.056929894
000030 70 4c 3c be 1f 55 ba be 4a 59 94 be 48 7b 98 3d
       -0.18388534 -0.36393067 -0.28974372 0.07445389
000040 59 29 d9 3e 33 81 6a bd 80 5c 0d 3d fe f3 20 3e
       0.42414358 -0.05725212 0.034512043 0.15718076
000050 b3 1e 0b bf c0 66 05 3e bf b3 af 3d f7 7d ae 3d
       -0.5434372 0.13027477 0.08579206 0.0852012
000060 8b 51 0f 3e 39 97 0d 3f c4 79 f9 be 0b 6b 87 3e
       0.1399595 0.5530887 -0.48725712 0.26448855
000070 13 fd db 3b a0 de 01 be 39 68 66 be 5b 4f 59 3e
       0.0067135184 -0.12682581 -0.22500695 0.21221678
000080 22 84 15 be 9b b0 71 3e b3 10 69 3d e7 e7 2a be
       -0.14601186 0.23602526 0.05690069 -0.16690026
000090 f9 39 76 be 63 21 ca 3d 8c be b2 be 7e 02 d7 bd
       -0.24045552 0.09869649 -0.34911 -0.10498522
0000a0 32 0b 0c 3f 54 42 14 bd dc 0b 2d 3e 97 77 39 bb
       0.5470458 -0.036196068 0.16899055 -0.002830004
0000b0 50 af 9a be aa 70 d9 bd 14 ee f7 3d 76 93 9c 3c
       -0.30211878 -0.10617192 0.12105957 0.019113284
0000c0 9d 8e d2 3c f7 b9 85 bd d6 61 cc 3e 15 ee 10 bd
       0.025702769 -0.065296106 0.39918393 -0.035383303
0000d0 e8 bc 84 3e 72 4e e8 bd ae 0e cc 3d 3e ad 34 3e
       0.25925374 -0.11343087 0.099637374 0.17644212
0000e0 72 9e af bd 0b b5 a2 bd 66 c2 b4 bd 87 94 8a be
       -0.08575143 -0.079446875 -0.08826141 -0.27066442
0000f0 47 f7 49 3c 08 cf 79 3b 4c 1a 94 be e0 c7 09 bf
       0.012327022 0.0038117785 -0.28926313 -0.5382061
000100 3b 38 9c 3e 0a 89 64 ba bf a6 d0 3c d0 d8 c4 bd
       0.3051165 -0.000871793 0.025470136 -0.09611666
000110 c9 2d e8 3d c4 8e 53 3c ce 9f a1 be 07 ac 8c 3e
       0.11336858 0.012912456 -0.31567234 0.27474996
000120 c0 ae f2 bd 12 de ce bd bc 44 61 3d 7c 8f 25 be
       -0.11849737 -0.1010095 0.05499719 -0.16168016
000130 f1 6c 88 bd ae 79 9d bc b6 cd f3 3c c7 c9 2d 3c
       -0.06661404 -0.01922306 0.029761177 0.0106071895
000140 92 87 cd 3d eb 7d b1 3e 2d 71 6c bd 93 41 16 bc
       0.100356236 0.3466638 -0.05772512 -0.009170908
000150 f0 f9 9e be 21 ab 9d be 7f d8 2e 3f b6 09 1b be
       -0.31050062 -0.30794623 0.68299097 -0.15140423
000160 88 9c 2b 3e 55 18 35 3e 10 ad 0e 3d f8 59 41 3f
       0.1675893 0.17685063 0.034833014 0.75527906
000170 39 d8 20 be 73 75 36 3e 85 73 90 bd f0 c7 44 3e
       -0.15707482 0.17818241 -0.070532836 0.19216895
000180 a7 6c 7e 3e 5c 4b 26 bd 07 77 07 3f 0a 40 4c 3e
       0.24846135 -0.040599212 0.52915996 0.19946304
000190 8d e0 14 bf 15 ab 6f be b7 79 8f 3c 11 52 db 3c
       -0.5815514 -0.23405106 0.017514093 0.02677253
0001a0 a4 86 c5 3d 33 72 0a bf 66 29 fc 3d 7b ed 41 3c
       0.09644821 -0.54080504 0.123125836 0.011836405
0001b0 4c 90 c2 bd 4b b0 0c be d5 a7 90 be 73 1b 76 bb
       -0.09500179 -0.13739125 -0.28253046 -0.0037552982
0001c0 e6 cf 86 be 2a 96 89 3e b6 91 95 bd 9f d6 38 3e
       -0.2633049 0.2687238 -0.07303183 0.18050621
0001d0 8c d0 41 be fb 29 20 be 58 52 c7 3c 85 15 b7 3d
       -0.1892721 -0.15641014 0.024331257 0.089396514
0001e0 86 50 fe 3e 67 18 c9 bd c9 41 d2 3e b7 0b 12 3e
       0.4967081 -0.098191075 0.41065815 0.14262281
0001f0 5b 56 9a be 92 7c c2 3e e7 9b ff 3e b1 86 14 3e
       -0.3014401 0.37985665 0.49923632 0.14504506
000200 7f fb de bc f2 e6 e0 be 06 e6 d3 bd 75 1f 5d be
       -0.027219532 -0.43926197 -0.10346608 -0.21594031
000210 d2 03 8e 3e a5 d1 f9 bc bc 8f 25 3d ad 70 8f be
       0.2773729 -0.030495474 0.04042028 -0.28015652
000220 a8 40 05 bc 89 15 88 bd 14 32 88 be 10 bb e5 be
       -0.008133091 -0.066447325 -0.26600707 -0.4486928
000230 85 70 6d 3e bb 2a d7 bd 92 dd e4 3e 5b 4d 01 bc
       0.23187454 -0.10506197 0.44700295 -0.007891978
000240 4f 1c 19 3e dc e2 ce be 87 47 5d 3e f4 70 04 3f
       0.14952205 -0.40407455 0.21609317 0.5173485
000250 08 08 23 3e ff 13 09 3d d8 a9 5a 3e 17 6c 9a 3d
       0.15921032 0.033466335 0.21353853 0.07540148
000260 38 db 7a 3e 03 be 94 3e d9 49 f8 3d dd e0 9b bd
       0.24497688 0.29051217 0.1212346 -0.07611249
000270 f4 ae c8 3e b3 ce b2 bc 84 6c 83 3e 41 77 44 bd
       0.3919598 -0.021827077 0.25668728 -0.047965292
000280 ae 36 98 3e 5a f2 c0 bd a1 59 d6 3d 14 74 37 bd
       0.29729217 -0.09421225 0.10466314 -0.044788435
000290 18 3c a0 3c 71 df 53 bd ab 63 b8 be f2 40 18 3c
       0.019559905 -0.051726762 -0.3601354 0.009292828
0002a0 50 8a 36 3c 75 81 07 3d 87 40 2e 3d f9 c3 74 be
       0.011141375 0.033082444 0.042542007 -0.23902883
0002b0 0a 1d b1 3d 99 5c 6e 3e c9 10 e3 3d 77 3a 3f bd
       0.08648117 0.2327751 0.11087186 -0.046686616
0002c0 a3 7c a0 be 1f 6d ba bd 1f ad de 3d a8 2d 54 3e
       -0.3134509 -0.091028444 0.10872864 0.20720541
0002d0 df d4 4a 3e 0f 27 34 3c ee e3 3a bd 36 37 89 3d
       0.19807766 0.01099564 -0.045627527 0.06699984
0002e0 e8 2f 17 bd c7 9a ab 3d 5d 7e 14 3e 55 2a 84 be
       -0.03691092 0.08379131 0.14501329 -0.25813547
0002f0 2a d5 1f be 21 4b 89 be 6c 61 8b 3d e8 df c2 3d
       -0.1560866 -0.2681513 0.06805691 0.09515363
000300 26 09 6c 3e e7 ec d4 3d a7 90 3a 3d e2 58 64 be
       0.23050365 0.10396748 0.045548107 -0.22299531
000310 57 ed 77 3d d6 f2 a2 bd 66 99 39 3e 16 fe 52 3d
       0.06052908 -0.079564735 0.18124923 0.051511846
000320 d8 b7 d5 bd f7 69 17 be e0 07 4c 3d bf 3e 4a bd
       -0.10435456 -0.14786516 0.049812198 -0.049376246
000330 c6 72 36 bd 98 0c a5 be e1 d8 59 3e 99 01 ba 3e
       -0.04454305 -0.3223617 0.21274139 0.36329344
000340 ea 06 df bc 66 55 23 bd 14 f5 94 be 29 6f 09 3e
       -0.027224977 -0.039876364 -0.2909323 0.1342131
000350 66 45 0e 3f 2d ef 09 3e 69 c3 d4 38 b3 5b ec 3d
       0.55574644 0.13470145 0.00010145346 0.11540928
000360 ea 2e 0a bd ca 4c a2 bd c4 1c 9b 3e 05 0d 45 3c
       -0.033736147 -0.079248026 0.30295384 0.01202703
000370 d3 77 03 3e b0 0a 3a be 64 9b 31 3d 9a 90 c9 3e
       0.12838678 -0.1816814 0.043361083 0.39368135
000380 27 d6 1b 3f 76 ad d0 3c 42 74 e1 bd e1 84 8c bd
       0.60873646 0.025473338 -0.110085025 -0.06861282
000390 66 fc a8 3d 88 c8 aa bc b9 07 1d bd 12 0c 11 3e
       0.08251266 -0.020847574 -0.038337443 0.1416476
0003a0 8f c2 75 be 01 a7 2f bc e4 cc 93 3d a8 c3 01 3e
       -0.24 -0.010720969 0.07216814 0.12672293
0003b0 14 57 1f be 72 e9 8e bd 3b ae dc 3e 07 49 13 3e
       -0.15560561 -0.0697812 0.43101677 0.14383326
0003c0 b8 2f 67 bd 50 bd d0 3b 38 ef e6 3d ad a2 0f be
       -0.056441993 0.006370224 0.11276096 -0.140269
0003d0 46 44 73 3d 18 cb 2a bd 57 b8 72 be 7e a3 04 3d
       0.059391282 -0.04169759 -0.23703133 0.03238248
0003e0 ee 8a bd 3e b2 d7 db bb bc e1 12 bc fc 26 19 3e
       0.37020057 -0.0067090625 -0.008964952 0.14956278
0003f0 bf 94 53 bc 19 f9 d5 bd 70 c5 6e bd 2c c6 9c 3e
       -0.012913882 -0.10447902 -0.05829376 0.30619943

weight_u f4 [80]
000000 0f 20 28 bd 88 2a a4 3e ca 03 51 3b 3e 22 05 be
       -0.0410462 0.320637 0.0031893128 -0.13001344
000010 89 18 bc 3c ff bb f4 3a eb b6 02 ba 6a e6 9f 3c
       0.022960918 0.001867175 -0.00049863633 0.01951905
000020 a7 96 b2 bd 63 71 8b 3d 51 2e 6b 3c cf 88 e8 be
       -0.08720141 0.06808736 0.014354304 -0.45416877
000030 30 78 0b 3c e4 36 a1 bc b3 4f 00 be d1 fd 7e be
       0.008512542 -0.019679494 -0.12530403 -0.24901511
000040 0b 30 01 3d 9c 48 9f 3b b8 de e7 3b da db cd bd
       0.031539958 0.0048609506 0.0070761107 -0.10051699
000050 07 04 71 3d 9f 15 43 bd 54 20 95 bd a3 fe c1 bd
       0.05884173 -0.04762804 -0.07281557 -0.09472396
000060 81 70 e1 3c 2d d2 da bb b6 f2 35 3c a3 6d 1d bc
       0.027519466 -0.006677887 0.01110523 -0.009608659
000070 54 85 25 3c d6 6b 32 3c 28 c8 9f 3c 84 ca 5c 3b
       0.010102589 0.010889968 0.019504622 0.0033690045
000080 00 02 02 3c 72 83 b0 be f3 51 6f bd 2e a3 04 3d
       0.007935047 -0.34475285 -0.058427762 0.032382183
000090 cb c3 25 bb a7 b4 ec 3b d9 69 ea bd 13 21 cd 3c
       -0.0025293704 0.007223684 -0.1144597 0.025040185
0000a0 39 b7 ac 3d e8 ec 56 be 48 3a ef 3a 69 23 97 3d
       0.084333844 -0.2098881 0.0018251622 0.07379801
0000b0 15 f9 3e 3a 15 32 85 bc 1b f7 dc bc 0d 33 09 be
       0.0007285041 -0.016259233 -0.026973298 -0.1339838
0000c0 fa 84 b2 3c 3a bd dd 3d cc 44 08 be db 25 1b be
       0.021791924 0.10827108 -0.13307494 -0.1515116
0000d0 f2 8f 02 bd 4d 60 c9 bd 26 96 d5 3d 80 76 cd bd
       -0.03187556 -0.09832821 0.10429029 -0.10032368
0000e0 28 4b cd 3b 0d ee e9 bd e1 db 77 3e 7d 94 39 bd
       0.006265063 -0.11422358 0.24204971 -0.045307625
0000f0 5f 28 1c ba 68 39 61 bd 6f 42 8f 3e 07 15 40 bb
       -0.00059569435 -0.054986387 0.27980372 -0.0029309408
000100 96 fb 50 bd bb bd 22 3b 7f 39 20 3d 76 7f ab bc
       -0.05102118 0.0024832326 0.039117333 -0.020934802
000110 84 8e a5 3c c1 45 56 be a7 89 85 bd 5e d3 65 3b
       0.020209558 -0.20925047 -0.06520396 0.0035068612
000120 b3 b8 35 bd 77 e3 a4 3c 21 a2 03 be 90 16 0a 3d
       -0.044365596 0.020127995 -0.12854816 0.033712924
000130 e4 81 cd bd d7 44 27 3c ea b1 57 3c b4 37 e3 bd
       -0.1003454 0.010209284 0.013164977 -0.11094609

weight_v f4 [80]
000000 46 40 91 bc 9c 71 94 bd 06 43 2e bc 5b 85 2d 3d
       -0.017730843 -0.07248232 -0.010636097 0.042363506
000010 fb 2f f4 bd 72 a2 ec bd 49 ac 0b be be 1c 82 be
       -0.11923214 -0.115544215 -0.1363994 -0.25412554
000020 84 54 18 be 70 b9 53 bd 53 2f 9b bb cb 59 41 3e
       -0.1487599 -0.05169052 -0.004735866 0.1888191
000030 e4 7e cd bc e7 71 9e bc cf 81 51 ba ad c7 7e 3c
       -0.02508492 -0.019341422 -0.000799206 0.015550536
000040 6f 63 e1 bd 1f b6 6c bb 74 40 1e 3e 50 05 89 3d
       -0.110052936 -0.0036119295 0.15454274 0.066904664
000050 0d 5d ce bd 45 b8 8f be ec a4 7d 3d 95 ed 58 3d
       -0.10076342 -0.28070274 0.06192486 0.05296095
000060 e9 85 18 be ab 59 9d be c5 4e 3e bd 29 31 3d 3c
       -0.14894833 -0.30732474 -0.04646184 0.011547365
000070 81 a2 e4 bc ff f5 1b bd 79 a3 a3 bb 64 8a bb bd
       -0.02790952 -0.038076397 -0.0049938527 -0.09157255
000080 56 cf 7f bc 21 39 fb bc f9 29 53 3b ed b9 3c 3d
       -0.015613398 -0.03066689 0.0032221063 0.04607575
000090 ef e9 fb bc dd 2c da bc de 22 2e bc 79 53 29 3e
       -0.030751197 -0.02663272 -0.01062843 0.16535749
0000a0 02 3b 15 3e b5 12 8f 3c 53 e0 97 3d 76 0f 5e be
       0.14573291 0.017464975 0.07415833 -0.21685585
0000b0 57 7a 17 be bb dd 55 3e 8d 3b b6 3d 6a d4 63 bd
       -0.14792763 0.20885365 0.08898077 -0.055622496
0000c0 00 72 f0 3c de 53 67 be 88 dc c7 bd d0 74 bb bd
       0.029351234 -0.22590587 -0.0975886 -0.091531396
0000d0 ce 11 64 3d 58 49 85 3d aa 60 0e be ae 2d 94 be
       0.055681042 0.0650813 -0.13904062 -0.289411
0000e0 e5 4d 45 be e7 17 3c 3d 61 a2 2d 3c 94 ce a3 bc
       -0.19267996 0.045921233 0.010597796 -0.019995965
0000f0 40 f0 5f bb 7c c2 b5 3c 23 ff 5f 3e de bf 13 bd
       -0.00341703 0.022187464 0.2187467 -0.03607165
000100 6c 70 c2 bb a9 38 e4 bd 1b 78 34 bd 90 9d 00 be
       -0.005933812 -0.111436196 -0.044059854 -0.12560105
000110 93 6d 6f 3d bc 4b c8 3c 5b 1d 20 bd 11 1c 3c 3d
       0.058454107 0.024450175 -0.039090496 0.045925204
000120 8f cc d7 bc 36 4a b6 3c 1a 0c a2 3b 5b 37 a0 3b
       -0.026342658 0.022252183 0.0049452903 0.0048894114
000130 b9 e2 5b 3e 52 94 20 bd ad 51 fb 3d 18 2f 64 bb
       0.21473207 -0.03920395 0.12271438 -0.003481811
